results/double_dqn_checkpoint_seed3.pt (torch_old, 35984 bytes, 6 tensors)

weight f4 [64, 37]
000000 4f be 22 3e fa 61 c2 be 09 07 26 be cd d0 0a 3e
       0.1589291 -0.37965375 -0.16213621 0.13556214
000010 56 5f f8 3d 6f 8b 9d be 2b 66 16 be ec 70 a1 be
       0.12127559 -0.30770442 -0.14687411 -0.31531465
000020 4d a6 82 3d 5d c3 fa bd f8 dc 28 3e ce 14 37 bd
       0.063793756 -0.12244294 0.16490543 -0.044697575
000030 68 f6 72 bd db 7f 11 3e 13 8a 4f bd 56 8b 36 be
       -0.059317023 0.14208929 -0.050668787 -0.1782659
000040 ad 09 30 be 8f 94 4a bd 03 9e 13 3d 79 02 bc 3e
       -0.17191191 -0.049458083 0.036039364 0.36720636
000050 15 db 80 be 2c 45 0a 3d 4f f6 1b 3e 72 ba 2f bd
       -0.25167146 0.033757374 0.15230678 -0.042902417
000060 69 dc 36 3e 9c 5c f4 be 34 01 c8 3d 2f ec 92 bd
       0.17857517 -0.47726905 0.097658545 -0.07173955
000070 82 05 81 bd ee 5b 66 3e ce 28 f3 3d 1e f8 0a 3e
       -0.06299879 0.22496006 0.11873017 0.13571212
000080 3a 81 ce 3d 19 0e 8e be ce a7 ec bc bd 40 a7 3c
       0.10083242 -0.2774513 -0.02888861 0.020416612
000090 22 95 1b bd 02 be d7 3d 9b 4a 0a 3e 54 d0 02 3e
       -0.03798402 0.10534288 0.13505022 0.12774783
0000a0 fa 0f 26 3e 17 0c dd bd fb 0b f2 3c 7f 84 c5 3d
       0.16217032 -0.107933216 0.029546728 0.09644412
0000b0 b4 3c 5a 3e 81 ab 73 3e 03 18 ad be d5 39 a8 3d
       0.21312219 0.23795892 -0.33807382 0.082141556
0000c0 53 23 96 bd a1 34 9d 3d f7 3c b8 3c 43 1c 46 bd
       -0.07330956 0.07676054 0.022490008 -0.048366796
0000d0 07 53 08 3e 7d 22 8c be 1a 13 83 be 64 14 1e bd
       0.13312922 -0.27370062 -0.2560051 -0.038593665
0000e0 fa 57 0c bf 61 70 99 bd 1b f3 25 3e eb 09 39 be
       -0.5482174 -0.07492138 0.16206019 -0.1807019
0000f0 a5 27 d1 bd c1 8c 87 be e9 f2 76 3b ec df de 3d
       -0.1021264 -0.26474574 0.0037681407 0.108825535
000100 df 70 03 bd 62 52 93 3e 1b ca 72 3e a7 68 03 3d
       -0.032090064 0.2877379 0.2370991 0.032082226
000110 94 f3 30 be ff 20 d1 3d cc 1e f0 3d 10 db 06 be
       -0.17280418 0.10211372 0.11724624 -0.13169503
000120 63 4c 24 be e6 bb 24 bb f9 aa 96 3d 3d da 4f be
       -0.16044764 -0.002513641 0.07356829 -0.20298095
000130 f5 25 43 3d d9 9d c3 3d 77 c1 43 be e3 f6 31 3e
       0.04764362 0.095515914 -0.1911677 0.17379336
000140 a3 73 7f 3e 64 bc 43 3e ea 31 0b be 76 14 4f be
       0.24946456 0.19114834 -0.1359326 -0.20222649
000150 bf e0 2b bd 71 51 7a 3e 2b b3 4a bd d8 bb c0 bd
       -0.04196238 0.2444513 -0.049487274 -0.09410828
000160 70 79 8c bd 7a e6 e1 bb 4f 09 8d bc 21 ee fe bc
       -0.068591 -0.00689393 -0.017216353 -0.031119408
000170 ae bd c9 bd 21 92 bc bd f4 db 05 3f 5a 75 7a be
       -0.09850632 -0.092075594 0.52288747 -0.24458829
000180 30 21 fd 3d a1 7d a7 be 91 00 c6 bf 1b 10 f2 3d
       0.12359846 -0.32713035 -1.5468923 0.11819478
000190 8a bd a3 3c d4 92 84 3d a2 1d 67 3e c0 c3 e5 3c
       0.01998784 0.06473318 0.22569898 0.028047442
0001a0 91 49 10 3e 07 ab 37 3c c1 88 db 3d 5a db 88 bd
       0.14090563 0.01121021 0.10719443 -0.06682463
0001b0 e6 bd 49 be 7c d0 83 bd 35 07 b0 3a 82 c9 8f 3e
       -0.19701347 -0.064362496 0.0013429882 0.28083426
0001c0 20 84 c8 bd c0 5e 29 3e e5 59 96 bd 0a 66 5a bf
       -0.09790826 0.1654005 -0.07341365 -0.8531195
0001d0 b1 ea a8 3e 13 68 6e be ba c7 6d bd f8 08 aa bd
       0.32991555 -0.23281889 -0.058051802 -0.08302492
0001e0 6a ef 1f be 53 ae 21 3e cb 19 81 3e a7 3f 65 3d
       -0.15618673 0.15789156 0.2521499 0.055968907
0001f0 fd a6 e0 3d 80 fc dd 3d 14 c2 ce bd 09 70 1a 3c
       0.109693505 0.10839176 -0.10095611 0.009426125
000200 12 74 87 3e 66 bd 40 bc 59 d2 a3 3d b1 5f d7 3d
       0.26455742 -0.011763906 0.07999105 0.105162986
000210 11 28 95 bc d2 50 f4 bd 2c c5 ce 3d 30 4e 05 3e
       -0.018207582 -0.11929478 0.10096201 0.13018107
000220 88 88 50 be cf 80 e8 bc f0 55 24 be 96 ef da 3d
       -0.20364583 -0.028381733 -0.16048408 0.10690229
000230 c1 7f 17 3e 9f ab 2c 3e e1 e2 4e bc 74 7e 0c be
       0.14794828 0.16862343 -0.012627334 -0.13720113
000240 1d b1 89 3c 54 ef 1d 3e ba cd 0e 3d 7a d2 29 bd
       0.016808087 0.15423328 0.034864165 -0.04146049
000250 14 40 7e be 96 be 2a be f8 af 21 3d 05 7d 4d be
       -0.24829131 -0.16674265 0.039474458 -0.20067222
000260 f8 af d1 bd 4e e8 af be c7 45 20 3e f7 e2 1e 3d
       -0.102386415 -0.34356922 0.15651618 0.03879067
000270 f0 44 7f 3e 04 57 92 3c f9 4e 41 3b d5 ba 1c be
       0.24928641 0.017863758 0.0029496534 -0.15305646
000280 c6 64 3d be e5 0a c9 3d 38 15 34 bd 4d 3c 0e bd
       -0.18495473 0.09816531 -0.04396555 -0.034725476
000290 9f 2f 7a be a0 5a 0b bc 37 6a 93 3d db 32 f4 bd
       -0.24432229 -0.008505493 0.07197993 -0.119237624
0002a0 57 2a e0 3d 8e af af be 6f 3e 08 3d a7 3d d4 3d
       0.10945576 -0.34313625 0.033262666 0.10363322
0002b0 15 ba ec be ad e9 7f bd e5 6e 06 3d 9e e3 c0 bd
       -0.4623572 -0.06247871 0.0328206 -0.094184145
0002c0 1f f8 ef 3d 8c 91 38 be fd b3 90 be 78 ea 18 3e
       0.11717247 -0.18024272 -0.2826232 0.14933193
0002d0 ce c1 92 bd 8c ea 2b be 4e cd 93 3d 34 b2 87 be
       -0.071658716 -0.16788691 0.07216893 -0.26503146
0002e0 e1 0e 19 be 1e 01 8b bc 10 c5 db bd 3c 7e 8b bd
       -0.14947082 -0.016968306 -0.10730946 -0.06811187
0002f0 5f fd b2 bd af bb 98 3e 07 2d a4 be 93 72 9f be
       -0.08739733 0.2983069 -0.32065603 -0.311421
000300 44 04 81 bd ce 5b bc 3d 58 86 04 3f 68 f9 09 be
       -0.06299642 0.09197198 0.5176749 -0.13474047
000310 69 de 19 bc 92 1d 54 bd d3 d4 c2 bc e5 1d 8d bc
       -0.009391406 -0.051786013 -0.023783123 -0.017226169
000320 0b d1 65 3e 2e b3 c0 3d a4 05 07 3e 15 08 95 3e
       0.22443025 0.09409176 0.13185745 0.2910773
000330 f4 70 09 3f 27 90 49 be 0d a6 00 be e9 fd 52 bd
       0.5368798 -0.19683896 -0.12563343 -0.05151168
000340 73 e3 47 be cb 29 95 be 0c 53 b7 3d cd 28 92 38
       -0.19520359 -0.29133448 0.08951387 6.969422e-05
000350 af d0 ca bd 76 50 32 be bd 12 33 bf 54 50 1c be
       -0.099030845 -0.17413506 -0.6995047 -0.15265018
000360 3c cd 84 3d 61 00 d4 3d 40 b1 d5 3c cc 43 7e 3d
       0.06484458 0.10351635 0.026085496 0.062076375
000370 76 ae c0 bd 72 df 1d 3e 56 b7 13 be c8 57 da bd
       -0.09408276 0.15417269 -0.14425406 -0.10661274
000380 7a ad 10 be 93 ca 3b be 16 2a 3b 3e 5f d0 8e be
       -0.14128676 -0.18338995 0.18277773 -0.2789335
000390 50 3a d9 bc 2c a5 51 3e df 7f 86 3d f0 e7 ce 3e
       -0.026517063 0.20473164 0.06567358 0.4041133
0003a0 7d 9b 9f bb 4b 16 46 bd b1 5a 76 3c b2 88 1e 3e
       -0.0048708306 -0.048361104 0.015036271 0.15481833
0003b0 af 95 5e 3e c0 a3 b9 3d fc d4 7d 3c 21 5d 98 bd
       0.21736787 0.09064436 0.015492674 -0.07439638
0003c0 15 6c 1f bd 25 f3 ef bd 4c ec ca 3c 21 c3 5f 3d
       -0.038921434 -0.11716298 0.024770878 0.05462945
0003d0 a8 43 fe 3d 35 0e f8 3d 98 03 15 be da fe 9b 3e
       0.12415248 0.12112085 -0.14552152 0.30467874
0003e0 4f 05 94 bd 8d 17 49 be f9 b2 db be 31 60 9b bf
       -0.07227575 -0.1963789 -0.42909983 -1.213873
0003f0 c2 19 5b 3d 43 3b b1 bc 62 d4 0b 3e 08 d1 4a 3e
       0.05349136 -0.021634704 0.13655236 0.19806302

bias f4 [64]
000000 b7 04 ab bd ff 2c 6a 3d 30 57 41 3d 8c c8 0d 3d
       -0.08350509 0.057171818 0.04720229 0.034615085
000010 2e da 89 bd 7b 12 ad bd ab 1d ac 3b 93 88 19 bd
       -0.067310676 -0.084507905 0.00525256 -0.037483763
000020 3c 67 98 bb cd 6d 19 bd c8 83 d8 3d 07 cb e0 b9
       -0.0046509784 -0.03745823 0.1057201 -0.00042875877
000030 f4 25 4d bc 68 35 02 bd 47 b7 c0 3c 13 1d 01 3d
       -0.012521256 -0.031789213 0.023524893 0.031521868
000040 21 26 38 bd 18 9a a1 3a 53 70 7f bd 59 29 a2 3d
       -0.044958238 0.0012329249 -0.06236298 0.07918043
000050 2e a4 8e 3d 53 47 1f bd 94 ac 2e 3c e8 6e 98 3d
       0.069649085 -0.03888638 0.010661263 0.07443029
000060 e9 d7 9d 3d 18 42 91 3d b0 30 52 bc a8 89 c6 3d
       0.07707197 0.070926845 -0.012828991 0.096942246
000070 35 c1 9b bd 1e 87 e1 3d 2b df 12 bd 5b 94 c5 3c
       -0.07605211 0.110121 -0.03585736 0.024118593
000080 bb b8 19 3e 69 07 cc 3d 53 85 85 bd cc c1 af bc
       0.15011875 0.09962351 -0.0651957 -0.021454714
000090 db a0 42 bd ce 68 0e bc fd 45 b2 3b 17 24 02 3d
       -0.047516685 -0.00869198 0.005440472 0.0317727
0000a0 4d 78 c2 bc 0a 7e 3c bd 3f 9b fc 3d 93 60 06 3d
       -0.023739005 -0.046018638 0.12334298 0.032806944
0000b0 c4 c8 3d bd 00 1a cd 3d 8e 8b 55 3d cb 84 c0 bd
       -0.046334043 0.10014725 0.052135043 -0.09400328
0000c0 ff 0e 46 3d f9 07 7f bc b7 42 4f bd 89 03 f2 3d
       0.048354145 -0.015565866 -0.050600734 0.118170805
0000d0 bc 9d 61 3d 3b 63 bc 3d 0e bd 87 3d 2c e1 4e 3c
       0.055082068 0.09198614 0.06627856 0.012626927
0000e0 bd f4 9b 3d 19 e8 00 be a0 a7 47 3d 2a ae 27 3d
       0.076150395 -0.12588538 0.048743844 0.04093758
0000f0 ae 6a e1 3d 82 1c 8e bb b5 98 f7 3d 8a 9c a3 3d
       0.11006676 -0.0043368945 0.120896734 0.07988842

weight f4 [64, 64]
000000 f1 83 c5 bc db 49 17 3e fe c7 cf bb e1 7c 1f 3e
       -0.024110766 0.14774267 -0.0063409796 0.15574981
000010 29 0d d1 bd 3c 1d df 3c bb 83 9b bc 29 5b 04 3d
       -0.10207588 0.02723562 -0.018983712 0.0323135
000020 c5 ff e2 be b2 69 46 bd 61 9d 96 bc ac 4e b3 be
       -0.44335762 -0.048440643 -0.018385591 -0.3502096
000030 78 a2 de 3d e2 94 31 3e 7d ca 0e be 7c 56 b4 bd
       0.10870832 0.1734195 -0.1394443 -0.08805558
000040 6b 3e 9a 3e 19 5d cc be ad bc fa 3d cd 4e f4 be
       0.30125746 -0.39914778 0.12243018 -0.4771637
000050 24 6e c5 3b 31 6c 2c be 2a df 69 bd 4a ca 32 3e
       0.0060250927 -0.16838147 -0.05709759 0.1745998
000060 e1 a1 c5 3d 42 5c 3d 3c 36 ef 93 be 2e 77 7e 3e
       0.096500166 0.0115576405 -0.2889344 0.24850151
000070 d6 89 10 3d 00 d7 50 bd bc 80 74 3c b4 9b 12 3e
       0.0352877 -0.05098629 0.014923271 0.14317209
000080 8c ba ca bc f9 ae 14 3e 32 e3 9c bd e1 c7 15 be
       -0.024747156 0.14519872 -0.076605216 -0.14627029
000090 fe 7b 3e 3e 9a c8 1a 3b 0d 56 b6 3d 97 7a 83 3c
       0.18601987 0.0023618103 0.08903132 0.016049666
0000a0 06 9e ba 3c 54 01 3a 3e 88 e8 aa be 40 b1 63 bd
       0.02278043 0.18164569 -0.33380532 -0.05558896
0000b0 a5 1a ee be 61 2a f3 bc 35 e1 b1 3e 8d a2 04 be
       -0.46504703 -0.029683294 0.34742132 -0.12952633
0000c0 c7 e5 bc be 89 ce 92 be 72 7f 05 be a2 64 44 bd
       -0.36894056 -0.286732 -0.13036898 -0.047947533
0000d0 b0 29 08 3e cc fe 37 3e 9e 2e 44 3e 77 7c 43 3e
       0.13297153 0.17968291 0.19158408 0.19090448
0000e0 04 2d 7f bd df 8a eb bc 7b 6d 40 be a1 76 e6 be
       -0.06229879 -0.028752742 -0.18791763 -0.45012382
0000f0 83 1f 20 3c 80 15 51 3d eb f4 7c be cd cc 3d 3c
       0.009773138 0.051045895 -0.24702804 0.011584473
000100 2c d8 56 3e ed 17 14 be 3f 72 08 3c 6c 46 65 3e
       0.209809 -0.14462252 0.00832802 0.22390145
000110 ff 59 60 be 4d 9b a9 bd ec 38 5c bd 28 8d ef bd
       -0.21909331 -0.082815744 -0.053765222 -0.11696845
000120 69 11 2d 3c 6d 0d 8a 3e 37 f5 a0 3e 26 c9 e5 3d
       0.010563233 0.26963368 0.31437084 0.11220007
000130 87 67 d5 3d 4a 6f e9 bd 45 4a 81 bb 87 8e db 3d
       0.10420137 -0.1139818 -0.003945621 0.10720544
000140 f2 d5 18 3e 5f 62 99 3e 86 f3 74 3d f9 de 22 bd
       0.14925364 0.29957864 0.059802555 -0.039763425
000150 62 b6 bf 3d a5 f3 02 3e ed d1 e1 bd 55 11 90 3d
       0.09360959 0.12788256 -0.11026368 0.07034556
000160 0d d5 15 3e c3 29 c2 3d d3 2d 48 3e 2c 58 59 3d
       0.14632054 0.09480622 0.1954873 0.053062603
000170 31 09 29 3e a8 42 b2 3d 5c 92 86 3d 38 d1 19 be
       0.16507412 0.0870412 0.065708846 -0.15021217
000180 4c f0 3f 3d 6d 37 a2 3e 20 04 92 be ff 89 28 be
       0.046860024 0.31682912 -0.28518772 -0.16458891
000190 c7 a5 bc be be 31 91 3e 46 f0 5f 3e e1 aa e2 3d
       -0.36845228 0.28358263 0.21869001 0.11067749
0001a0 26 fe 89 3d 25 c6 38 3d 93 1c fc 3d b6 c1 35 3d
       0.06737928 0.04511084 0.123101376 0.04437419
0001b0 04 aa 8c 3d 46 5b 5d 3e 9c 3b ad 3d 46 02 d9 bc
       0.068683654 0.2161685 0.08458635 -0.026490342
0001c0 1c 31 66 bd 90 53 ce bd 9c 7d 72 3d 7f b8 77 3e
       -0.056199178 -0.10074532 0.05920182 0.24191473
0001d0 aa 97 13 3d 49 d4 87 3e 9b 3f 35 3e 80 9e 87 3d
       0.03603331 0.26529148 0.17700045 0.06622028
0001e0 71 73 3e 3e aa 49 c1 3d 1a cd e5 3d f4 7d d4 3e
       0.18598725 0.094378784 0.11220761 0.41502345
0001f0 ee 7c c5 3d 29 52 74 3e 0f 7a 86 3e 7e 97 fe 3c
       0.09642969 0.23859467 0.26264998 0.031078096
000200 f9 8a 1d be a7 50 f3 bd fe ad 47 be 03 f3 31 3c
       -0.15385045 -0.118806176 -0.19499967 0.010861161
000210 2b 6d 59 3d 19 f0 ad 3d a7 03 97 3e 20 7c 94 be
       0.053082626 0.084930606 0.29494974 -0.2900095
000220 97 96 01 3e 4b 71 53 be 2b 65 2d 3e 34 7d cd 3c
       0.12655102 -0.20648687 0.16933124 0.025084116
000230 db 5d 14 3c 9b c1 92 be 0f 4a 79 bc b6 3b cc be
       0.00905558 -0.28663334 -0.015215411 -0.39889306
000240 87 1d 44 be 41 d6 c7 3d 98 43 0e 3d 93 0d 14 bd
       -0.19151889 0.097576626 0.03473243 -0.036145758
000250 3e 15 33 bd ce 00 59 bc 49 fb 14 3e 06 76 d0 bb
       -0.04372143 -0.013244821 0.14548983 -0.0063617257
000260 b8 b5 91 bd e1 81 22 3d 0e 05 c0 3d 37 8a 16 bd
       -0.07114738 0.039674643 0.09375964 -0.036752906
000270 c7 7f 8c 3d f2 6c 84 3e 6b c0 dc bc 89 82 c0 bd
       0.06860309 0.2586437 -0.02694722 -0.093998976
000280 1f f2 bd 3e 21 a4 87 3e 1b 66 38 3c ac 57 26 3e
       0.37098786 0.26492408 0.011254813 0.16244382
000290 d2 b0 d3 3e ee 6e 27 3d 6e 82 a6 be 81 c0 bf bd
       0.4134584 0.040877275 -0.32521385 -0.09362889
0002a0 26 31 21 be 7b e4 07 bc 75 ab 30 3e 25 77 a9 bd
       -0.15741405 -0.00829422 0.17252906 -0.08274678
0002b0 01 8b b6 bd 52 dd b8 3e d8 8e 72 bd 91 80 b3 be
       -0.08913232 0.36106354 -0.059218258 -0.35059026
0002c0 cf 19 09 3d f6 58 92 be c3 2d 8f be 5e f2 e3 3d
       0.03347188 -0.28583497 -0.279646 0.11130212
0002d0 50 f7 fb bc a1 11 e9 3e be 67 c2 bd 90 5d b0 be
       -0.030757576 0.45521262 -0.094924435 -0.34446383
0002e0 c9 2f 18 be c7 ae 96 be eb 0f e7 be 10 e8 34 3e
       -0.14861979 -0.2943022 -0.45129332 0.1766665
0002f0 d1 c8 ce bd 96 c2 b9 3d 3b a4 84 3e 9c 4c cf bd
       -0.100968964 0.090703174 0.25906548 -0.10122034
000300 bd d9 45 be 35 3b 8b be 08 af 12 be 19 76 a7 3d
       -0.19321342 -0.2719361 -0.14324582 0.08176822
000310 81 6e 90 bd d5 68 4a 3e 4e c8 8f 3d 23 d3 16 bf
       -0.07052327 0.19766553 0.07020627 -0.5891592
000320 22 bb 21 be 06 ab 17 be 10 29 2b 3e a0 27 3e be
       -0.15794042 -0.14811334 0.16714883 -0.18569803
000330 8e 3c c3 bd 83 d1 84 3d 86 3c c6 3c 2e d9 31 3c
       -0.09533034 0.06485274 0.024198782 0.010855002
000340 37 34 4b bf 68 d8 5e bd 3f de 92 3d dd fa d7 3d
       -0.7937655 -0.0544056 0.07171296 0.10545895
000350 b1 67 88 bd 69 b3 06 be ce 3a 09 3e 54 41 e4 bb
       -0.066604026 -0.13154377 0.13401338 -0.0069657955
000360 52 b4 c8 bc 88 d6 aa 3d 02 c9 ff bc a0 c5 37 3d
       -0.024500046 0.083417 -0.031223778 0.044866204
000370 57 4b 55 bc bd e6 1a bd 70 1b 8d be 13 69 fb bd
       -0.013018451 -0.037817705 -0.27559996 -0.12275901
000380 48 92 e0 3d 9b 45 98 bd cc c4 f7 bd 47 09 19 bd
       0.10965401 -0.07435151 -0.12098083 -0.037362363
000390 0e 19 79 3d af 04 38 3d 27 66 63 3d c6 0e af be
       0.06081491 0.04492634 0.055517342 -0.3419096
0003a0 24 2c ea bd f3 15 60 3b 4e 3c 82 3d 33 ee 41 bb
       -0.114342004 0.003419277 0.063591585 -0.002959144
0003b0 77 48 a4 bd 23 3a ca 3d e0 75 a1 bd c5 d3 04 3e
       -0.08021634 0.0987437 -0.07883811 0.12971409
0003c0 d5 ee 99 3e d2 5b 1e 3d 83 b0 59 be e3 05 40 be
       0.30065027 0.038661785 -0.2125874 -0.18752246
0003d0 58 33 c1 3c ee ed 50 3e d2 f0 cc 3d b5 50 99 be
       0.023584053 0.20403263 0.1000687 -0.29944387
0003e0 f1 55 71 be 85 6e b8 be 0f d2 23 be 93 df b8 ba
       -0.2356794 -0.3602182 -0.159981 -0.0014104716
0003f0 68 29 22 be a7 b1 87 3e 98 26 0d 3e b0 4d ce be
       -0.15836108 0.26502725 0.13784254 -0.40293646

bias f4 [64]
000000 6e 7a 5e bd 86 10 ad 3e 46 9b d3 bc b5 5f 1d bd
       -0.054315977 0.3380167 -0.025830876 -0.03842135
000010 14 56 b7 3d 0d 86 63 3c 11 0b 5f 3e 5e c5 32 bd
       0.08951965 0.013886941 0.21781565 -0.043645255
000020 c6 ab fc bc 19 8c c7 3c 89 ec 44 bd d3 66 3b 3d
       -0.030843627 0.024358796 -0.04807714 0.045752358
000030 e7 bc 85 3d e2 e7 ac 3c 52 96 ec bd 3e b9 03 bc
       0.06530171 0.021106664 -0.11552109 -0.008039771
000040 90 7e ce 3e 0e 7e 43 bc 81 24 00 bd cc 87 54 bd
       0.40330935 -0.011931909 -0.031284813 -0.05188732
000050 86 06 80 3c 84 2e 35 bd b0 0c af bd e4 8b 20 3d
       0.01562811 -0.044233814 -0.08547342 0.03919591
000060 29 a0 11 be 0e 85 60 3d 22 95 a9 3d 1f 94 31 bc
       -0.14221253 0.05481439 0.08280398 -0.0108385375
000070 73 14 02 3e 08 dc 01 3d 4c 03 f3 bc a5 8e b8 bd
       0.12703113 0.03170398 -0.029664658 -0.09011582
000080 7c d5 25 bc 6d 96 fc 3d 7b 24 42 3d dc 52 c8 bc
       -0.010121699 0.12333379 0.04739807 -0.024453573
000090 9a 1e 9a bd 94 f4 32 3e 6c b1 50 3d 70 90 6e bc
       -0.07525368 0.17476112 0.050950453 -0.014560804
0000a0 76 e0 ae 3d 7d c5 cf bd 5b c2 ca bd e9 21 70 bd
       0.08538906 -0.1014509 -0.099003516 -0.05862609
0000b0 77 f6 6f bd 70 7f 04 3d a3 94 13 3d 5d 56 63 3d
       -0.058584657 0.032348096 0.036030423 0.055502284
0000c0 c6 9d 63 bd ca 46 b9 bb 97 38 58 3d b3 48 2f bd
       -0.055570386 -0.0056541907 0.052788343 -0.04279394
0000d0 99 d2 0d 3b 30 d0 c9 3d 74 40 cc bd 92 38 40 3d
       0.0021640419 0.09854162 -0.09973231 0.04692895
0000e0 e6 6c bb bc 5c 5f 1f 3e da ff bf 3d 29 9d ca 3d
       -0.022879075 0.1556372 0.09374972 0.09893257
0000f0 61 51 e2 bd f5 45 85 be 56 31 b9 bd 31 48 9f bc
       -0.11050678 -0.26029935 -0.09042613 -0.019443603

weight f4 [4, 64]
000000 97 1e f6 3d 84 32 ee 3d 05 0f c5 3d 37 87 18 be
       0.12017553 0.11630729 0.096220054 -0.1489533
000010 a3 35 57 3e 44 c7 63 3e 4d 05 38 3d a8 03 82 3d
       0.21016555 0.22243983 0.04492693 0.063483536
000020 58 e9 fa 3d ac d3 82 bd 9d 5b 98 bd c5 64 1b 3e
       0.12251538 -0.063880295 -0.07439349 0.1517516
000030 42 e5 84 3e 06 a6 50 3e 51 29 e4 3e ab 5c 31 3c
       0.2595616 0.20375833 0.44562772 0.010825316
000040 50 57 fb 3d ae 86 03 3e 0f da 25 be 78 f4 31 3e
       0.12272513 0.12844345 -0.16196464 0.17378414
000050 a4 59 81 3e c7 07 3c be 65 b6 b0 3d e8 64 7e 3e
       0.25263703 -0.18362342 0.08628539 0.2484318
000060 5a c6 a8 bd cb 24 a6 3d a2 c7 64 3e 36 86 f1 3c
       -0.082409576 0.081124865 0.22341779 0.029482942
000070 ff ab 00 bc c8 6d 73 bd 6a 91 16 bc 2f 06 34 3c
       -0.007853507 -0.059430867 -0.009189943 0.010987802
000080 46 81 04 3d 68 47 84 3d d0 05 e2 3d 54 ef c6 3d
       0.032349847 0.06458932 0.11036265 0.09713617
000090 05 44 69 be c7 84 c7 3d 21 24 c3 3d 87 01 f7 bd
       -0.22779854 0.09742122 0.095283754 -0.12060838
0000a0 82 2c f1 3d 65 8e b2 bd da 7e b2 3d b9 30 46 be
       0.11776067 -0.08718566 0.08715601 -0.19354524
0000b0 9d 6b 90 bd 38 ba f5 3d 60 e2 55 bb ae 5c 65 3d
       -0.070517756 0.11998409 -0.003263615 0.05599659
0000c0 46 b4 84 be a1 33 24 3e 85 a6 99 3c f0 b6 65 3e
       -0.25918788 0.1603532 0.01875616 0.22433066
0000d0 66 9b a1 3d e3 5a 34 3e 69 8c 73 bd 91 f6 6f 3c
       0.07890968 0.17612796 -0.059460077 0.014646188
0000e0 31 e8 be bd 60 2b db 3d 3d 66 2a 3e f3 66 03 3e
       -0.09321631 0.107016325 0.16640563 0.12832241
0000f0 93 1f e0 3a d5 a1 72 bd d7 44 91 bd ed f8 9f 3d
       0.0017099254 -0.059236366 -0.07093208 0.07811151
000100 26 99 17 3e d7 7d e2 3d d0 68 d9 3d f8 8a 00 bd
       0.14804515 0.11059158 0.106156945 -0.03138253
000110 a2 2c 14 3e 4d e3 4a 3e ad ef cb 3d 76 cf 33 3d
       0.14470151 0.19813271 0.09957824 0.043899022
000120 be d8 31 3e 83 f2 96 3c 7f 78 e3 3c 5e d7 8a 3e
       0.17367837 0.018426185 0.027767418 0.27117437
000130 6f e7 58 3e 8f 49 df 3d 43 71 83 3e bb b4 01 3c
       0.21182035 0.10902702 0.2567235 0.007916625
000140 af 31 f0 3d 78 23 c9 3d f1 d9 26 bd 57 2f 48 3e
       0.117282264 0.09821218 -0.04073519 0.19549309
000150 0f 93 39 3e ba e9 aa 3d 93 62 24 3e 34 53 3d 3e
       0.18122505 0.08345361 0.16053228 0.1848877
000160 4d ea 06 be a3 8c 06 bc a2 23 06 3d aa 71 0e 3d
       -0.13175316 -0.008212241 0.032748826 0.034776367
000170 3f c6 b7 3d 8e e1 6a 3d 00 91 f8 3d 27 19 1e 3d
       0.08973359 0.057344012 0.121370316 0.038598206
000180 a3 48 8e bc d3 4b 82 3d f6 e3 ed 3d 6b 1e ee 3d
       -0.01736862 0.063621186 0.11615746 0.116268955
000190 26 b3 29 be ed b5 a4 3d 98 b1 b7 3d 2c 88 44 3d
       -0.16572246 0.08042512 0.0896942 0.047981426
0001a0 4e 91 9a 3d a2 ae 23 3c b0 7d 9d bd c3 a7 01 bc
       0.07547246 0.009990366 -0.076899886 -0.007913533
0001b0 93 3e 80 be b8 87 06 3e a7 2c df 3d 2c 29 23 3d
       -0.2504774 0.1313771 0.10897189 0.039834186
0001c0 16 02 51 be b5 24 15 3e c1 6e 2a 3e a9 bd 09 3e
       -0.20410952 0.14564784 0.16643812 0.13451256
0001d0 1d 80 21 3c d2 80 4b 3e 6f 05 d1 bd 6a e2 fa 3d
       0.009857205 0.1987336 -0.102061145 0.12250216
0001e0 d0 6c 01 be 68 87 fd 3d c9 bc 56 3e a3 87 c9 3d
       -0.12639165 0.12379342 0.20970453 0.09840324
0001f0 c6 18 ee bd b5 f3 a2 bc e3 58 25 3c 22 a6 b2 bc
       -0.11625819 -0.0198916 0.010091993 -0.021807734
000200 cb a9 2d bd 00 7e f3 3d 5d 0c c9 3d 0c c6 e5 3d
       -0.042398255 0.11889267 0.09816811 0.11219415
000210 0b 77 4b 3e 80 8a 38 3e be d2 91 3d 17 0b 80 3e
       0.1986963 0.18021584 0.07120274 0.2500846
000220 62 d0 82 3d 98 f4 c5 b9 59 d8 52 3e 43 2c 89 bd
       0.06387402 -0.00037757005 0.20590343 -0.066978954
000230 79 d9 8c 3d eb 83 67 3d 19 b4 c7 3e b3 a6 ed 3d
       0.06877417 0.05652229 0.3900459 0.11604061
000240 2f b1 08 3e 36 30 25 3e ce 92 91 3d b2 f8 fb ba
       0.1334884 0.16131672 0.07108079 -0.0019223897
000250 76 29 37 3e c2 7f 10 3e 58 0d 6a 3e 8f cd 08 3e
       0.1788691 0.14111236 0.22856653 0.13359664
000260 94 49 61 be d3 71 ff 3d 6d 81 39 3e 46 ad 46 3e
       -0.22000724 0.12472882 0.18115778 0.19402036
000270 a1 de 6d 3d 18 d2 0b 3e 2d d7 e7 bc c6 30 97 3d
       0.058073644 0.13654363 -0.028300846 0.0738235
000280 f2 48 bf 3e ff 2c b7 3d 92 57 83 3e ae f0 9a 3e
       0.3736034 0.08944129 0.25652748 0.3026175
000290 99 dd 91 be 0c 79 ce 3d 66 9b 38 3e 29 4d 04 be
       -0.28489378 0.100816816 0.1802803 -0.1292006
0002a0 f7 2e fa 3d 77 00 af 3d 15 e4 9b 3d 4d d7 ab bb
       0.12215989 0.085450105 0.076118626 -0.0052441717
0002b0 ec 73 30 be 40 8a aa 3d 4e cd 9b be c1 05 9c be
       -0.1723172 0.0832715 -0.30430073 -0.3047314
0002c0 e3 b0 57 be 47 fd 51 3e eb 27 b2 3e ca 08 13 3e
       -0.2106357 0.20506774 0.3479608 0.14358822
0002d0 46 72 2f be 91 79 9b 3e 7c 17 9e 3c b5 3e 17 bd
       -0.17133436 0.30366185 0.019298308 -0.036925036
0002e0 f6 31 ff bd 3b fb cc 3d 0f d7 42 3e e8 42 c2 3b
       -0.12460701 0.10008856 0.19027351 0.005928386
0002f0 49 07 e7 bd 9d 78 33 bd 09 be 6c bd cc 30 c9 3e
       -0.112806864 -0.043816198 -0.05779842 0.39295042
000300 60 3c 7a 3e 77 7f dc 3d 8c 55 83 3e 3c 6e a9 bd
       0.24437094 0.107664995 0.25651205 -0.08272979
000310 b0 1c 03 3e 58 7c 0a 3e 2e 01 34 3e 7c 85 b1 bd
       0.12803912 0.13523996 0.17578575 -0.08668038
000320 23 c7 49 3e 41 b2 98 3d c8 f8 45 bd 17 c8 b1 3e
       0.19704871 0.07455874 -0.04833296 0.3472297
000330 42 4b 48 3d 2f 95 4f 3e e9 01 7d 3b a9 76 c1 3d
       0.048899896 0.20271753 0.0038605875 0.09446461
000340 36 dd f0 3d 99 a4 e7 3d 95 fb 35 bd 51 7c 9e 3e
       0.11760943 0.113106914 -0.04442938 0.3095422
000350 fb 52 aa 3e 89 57 f1 bc 78 24 f5 3b 7a 6b 0f 3e
       0.33266434 -0.029460685 0.007481154 0.14005843
000360 4d b6 aa 3d 55 67 28 3e 3e 19 8c bd 1e bb a4 3d
       0.08335552 0.16445668 -0.06840752 0.08043502
000370 c8 94 8d 3d ca 85 0c 3e 99 38 28 3e f0 74 b0 bd
       0.069131434 0.13722911 0.1642784 -0.08616054
000380 f4 0f bf bd 5f 3b 87 3d 6c 92 f8 3d 4c 34 88 3d
       -0.09329215 0.06603121 0.12137303 0.066506
000390 16 99 82 be 0a 18 2d bb 7b 2a 2f 3e 55 05 f7 bd
       -0.2550742 -0.0026412033 0.17106049 -0.12061564
0003a0 5e 57 94 3d 4a 51 04 3e 9f 2f 98 3e 85 d6 d4 bd
       0.072432265 0.12921634 0.29723832 -0.10392479
0003b0 6c 29 ad be 48 f4 81 3d fb 9b 27 3d ec 37 18 be
       -0.33820665 0.06345421 0.04092024 -0.14865083
0003c0 01 0a d6 bd b5 10 b0 3e 91 7d 34 3c db 76 11 be
       -0.10451127 0.34387746 0.0110162655 -0.14205496
0003d0 db 09 ab bb b8 67 45 3e 86 b0 81 ba 6f 30 6d 3e
       -0.0052196807 0.19277847 -0.0009894527 0.23163007
0003e0 a8 0c b2 bd 22 64 33 3e 2e 4d d9 3d cb 3c cc 3d
       -0.0869382 0.17518666 0.10610424 0.09972533
0003f0 ea 79 44 be d5 bf 11 be b7 72 b8 3c ea 40 3f bb
       -0.19187132 -0.14233334 0.022515638 -0.002918298

bias f4 [4]
000000 31 47 c9 3e 2f fc a3 3e 0b d3 95 3e ec af a3 3e
       0.39312127 0.32028338 0.29262576 0.31970155
