results/double_dqn_checkpoint_seed2.pt (torch_old, 35984 bytes, 6 tensors)

weight f4 [64, 37]
-0.08153148 -0.16205941 -0.050816607 0.09930988 0.3106772 0.2671918 0.019809023 -0.2285509
-0.11853963 -0.6308215 -0.22107102 0.022081634 -0.034894183 0.0063268906 0.14522181 0.08253529
-0.026080819 -0.009155812 0.0936406 -0.12225343 0.0145442635 -0.17268789 0.07274083 -0.0072196512
0.747815 0.030125316 -0.29382524 -0.07385766 0.104500346 0.48017207 0.15607725 0.16205044
-0.026337158 0.31399292 0.15238109 0.0067762127 0.035306327 -0.083440535 -0.056526765 0.0047287275
-0.028677715 0.021272685 0.066676676 0.24598654 0.1687319 0.07031429 -0.0058578094 -0.04870766
-0.20359685 -0.060233165 -0.05365445 0.015099941 -0.045705933 0.046395365 0.048448626 0.1373667
0.07105474 0.13524257 0.27928838 0.17451252 0.32253516 0.11265928 -0.050079796 0.15707834
0.18391284 0.15449592 0.20985122 0.4688358 -0.8579418 -0.49195278 -0.25408977 -2.4807234
-0.021820933 -0.008234385 0.2062342 -0.31965923 -0.11266016 -0.021942519 -0.3250485 -0.46384335
-0.34428155 0.13352524 -0.22238596 -0.15596877 0.17044443 0.18085852 -0.6841498 -0.15869275
0.27446902 0.061959784 -0.21994846 -0.21952489 -0.56435484 -0.046400923 0.17386386 -0.018915093
-0.10298895 0.30330217 -0.2404812 -0.09663307 0.096551105 0.24714468 -0.46366945 -0.18831013
-0.33177632 -0.36586377 0.21095239 -0.016988335 0.048938803 -0.0710602 -0.015415415 -0.10228996
0.22352949 0.10510982 -0.1331152 0.13842188 -0.16561323 0.12019911 -0.101698965 -0.14914319
-0.020956395 0.013519309 -0.013636558 -0.18668145 0.050843395 0.11135444 0.47270995 -0.25981915
0.119220056 -0.49235708 -1.1347355 0.03801003 -0.07396247 -0.013150501 -0.16359487 -0.17054708
-0.2854274 0.19651784 0.24712062 0.11812624 -0.01922816 -0.101829834 0.08195981 0.22433682
-0.056308962 0.10675335 0.019708706 -0.036996022 0.039816726 0.049172256 0.035239693 0.0851352
-0.11744153 -0.19888775 0.21834211 0.07084823 0.038848694 -0.029849462 -0.15432855 -0.029378276
0.23220143 0.18078552 0.60323787 0.058850292 0.028195444 0.05768704 -0.047351103 -0.033786666
-0.025665535 0.12791651 0.10358974 -0.20678851 0.0066216066 -0.09723569 -0.012560775 0.027939087
0.06589406 0.46824813 0.16125567 -0.08838315 0.034403026 0.28691378 1.1781791 0.015165322
0.07351181 0.07722696 -0.1636744 0.0051337136 0.13753945 -0.19268712 -0.17023583 0.21581785
-0.08851872 0.27368248 0.012996381 -0.20533903 -0.05208215 -0.09788782 -0.116917536 -0.24578828
-0.17116654 -0.14516053 0.13196363 0.017153922 0.21433288 0.16725211 0.09142538 -0.22190705
-0.111088686 -0.68187034 0.010432194 0.16405003 0.1174396 0.22207278 0.024124196 0.2400379
0.19643778 -0.2577891 0.036160853 -0.49559823 -0.28006738 0.06900741 0.01097093 0.23393053
0.05384212 0.077704996 0.0022433707 -0.06365475 0.035897546 -0.014997572 -0.20816801 -0.524691
0.121359825 0.12888397 0.16931112 0.14280179 -0.06581448 -0.022252623 -0.01957844 0.06401028
0.0036635166 0.17470177 -0.099422 -0.16127658 0.18666507 0.0687092 0.4694473 0.017813988
0.21650821 0.09938734 0.06828281 -0.07195732 0.30821303 -0.0006942376 -0.01677995 -0.5729066
00000000: faf9 a6bd e7f2 25be 1325 50bd fa62 cb3d
00000010: 1511 9f3e 5dcd 883e 8846 a23c 3f09 6abe
00000020: e8c4 f2bd 857d 21bf 7160 62be 8be4 b43c
00000030: 34ed 0ebd ce51 cf3b 07b5 143e 4308 a93d
00000040: 71a7 d5bc 4202 16bc a5c6 bf3d 0260 fabd
00000050: 104b 6e3c 18d5 30be 25f9 943d d392 ecbb
00000060: ce70 3f3f 5ec9 f63c 4370 96be af42 97bd
00000070: 4704 d63d 1dd9 f53e b7d2 1f3e 8df0 253e
00000080: 06c1 d7bc aec3 a03e ca09 1c3e fe0a de3b
00000090: 5e9d 103d dfe2 aabd 9c88 67bd 71f3 9a3b
000000a0: 87ed eabc 0e44 ae3c c88d 883d e5e3 7b3e
000000b0: 0ec8 2c3e f000 903d def2 bfbb af81 47bd
000000c0: b17b 50be 0db7 76bd c5c4 5bbd be65 773c
000000d0: 2536 3bbd 1109 3e3d 1172 463d dba9 0c3e
000000e0: 2685 913d 077d 0a3e e3fe 8e3e 69b3 323e
000000f0: 5423 a53e e9b9 e63d 7920 4dbd 25d9 203e
00000100: a653 3c3e 2e34 1e3e 3de3 563e 3f0b f03e
00000110: 13a2 5bbf 3ce1 fbbe 0e18 82be 2cc4 1ec0
00000120: d0c1 b2bc 84e9 06bc 0f2f 533e 60aa a3be
00000130: 5fba e6bd ccc0 b3bc c26c a6be e07c edbe
00000140: ac45 b0be d7ba 083e 25b9 63be 47b6 1fbe
00000150: fc88 2e3e fa32 393e 7124 2fbf 5a80 22be
00000160: 3487 8c3e 8bc9 7d3d 2b3a 61be 22cb 60be
00000170: 8f79 10bf e50e 3ebd 5e09 323e d3f3 9abc
00000180: dfeb d2bd 6c4a 9b3e b440 76be 8fe7 c5bd
00000190: 96bc c53d 7f13 7d3e 1566 edbe 5fd4 40be
000001a0: 96de a9be 7f52 bbbe e703 583e 1f2b 8bbc
000001b0: 0e74 483d 0388 91bd f090 7cbc 667d d1bd
000001c0: eae4 643e d143 d73d 5a4f 08be 77be 0d3e
000001d0: 8496 29be f32a f63d 8c47 d0bd feb8 18be
000001e0: bfac abbc 1880 5d3c df6b 5fbc 6c29 3fbe
000001f0: 2a41 503d cc0d e43d 0a07 f23e 0407 85be
00000200: a529 f43d 3a16 fcbe 033f 91bf 68b0 1b3d
00000210: a379 97bd 3375 57bc 6a85 27be e5a3 2ebe
00000220: 8a23 92be f93b 493e 300d 7d3e 2cec f13d
00000230: 6084 9dbc 298c d0bd 8bda a73d 8db8 653e
00000240: 3aa4 66bd 80a1 da3d 2774 a13c 2489 17bd
00000250: dd16 233d d968 493d 7f57 103d 5d5b ae3d
00000260: 2f85 f0bd 3ba9 4bbe 1395 5f3e e018 913d
00000270: cf1f 1f3d dc86 f4bc 4e08 1ebe b6aa f0bc
00000280: 36c6 6d3e d71f 393e cc6d 1a3f 010d 713d
00000290: 22fa e63c 3f49 6c3d 3bf3 41bd e363 0abd
000002a0: 8740 d2bc 8cfc 023e dc26 d43d 5ec0 53be
000002b0: 10fa d83b 8123 c7bd b5cb 4dbc 83e0 e43c
000002c0: 77f3 863d 38be ef3e 3520 253e 3a02 b5bd
000002d0: 30ea 0c3d 5de6 923e 93ce 963f f977 783c
000002e0: 5c8d 963d 2b29 9e3d 439a 27be b638 a83b
000002f0: 24d7 0c3e c64f 45be 4d52 2ebe 5bff 5c3e
00000300: 4d49 b5bd 1c20 8c3e c6ee 543c 6544 52be
00000310: 1854 55bd 6979 c8bd 7672 efbd ecaf 7bbe
00000320: 4846 2fbe f6a4 14be 7921 073e 6286 8c3c
00000330: 147a 5b3e 2344 2b3e 3b3d bb3d 9a3b 63be
00000340: 7782 e3bd 0e8f 2ebf cbeb 2a3c bbfc 273e
00000350: 2c84 f03d 0c67 633e 1ba0 c53c 7fcc 753e
00000360: fc26 493e effc 83be 671d 143d 0dbf fdbe
00000370: fe64 8fbe c253 8d3d 6abf 333c 7c8b 6f3e
00000380: 8e89 5c3d cc23 9f3d 8405 133b 6c5d 82bd
00000390: 4e09 133d 60b8 75bc ff29 55be 2652 06bf
000003a0: 808b f83d 29fa 033e e55f 2d3e a23a 123e
000003b0: bec9 86bd 224b b6bc f762 a0bc d217 833d
000003c0: 9c17 703b 05e5 323e c39d cbbd b025 25be
000003d0: 2125 3f3e 69b7 8c3d 665b f03e a4ee 913c
000003e0: 54b4 5d3e 978b cb3d dcd7 8b3d 5c5e 93bd
000003f0: 19ce 9d3e 7ffd 35ba 1b76 89bc 02aa 12bf

bias f4 [64]
0.04598671 0.06061339 0.03412931 0.052287094 0.033793222 0.04084205 0.13226081 0.10705399
-0.055805657 -0.059236787 0.00419144 0.039489567 0.06904507 0.1285084 -0.01741796 0.036620717
0.017548267 -0.065132625 0.102053516 0.04355543 0.008867268 0.023150526 0.13030149 -0.012606251
-0.13395938 -0.007942003 -0.021705896 0.11890568 -0.0056942143 0.0779156 0.118133634 -0.06902208
-0.027172782 0.0059908065 0.038283017 0.030598173 0.17018938 -0.14508282 0.009827301 -0.15268563
0.20813042 0.0781683 0.15185794 0.061248258 0.06821133 0.05206054 -0.017603034 0.06026874
-0.010865702 0.044394907 0.11621758 0.016041143 0.052228898 -0.07152007 0.020551397 0.019225005
0.0873173 -0.013046368 -0.0061535574 0.0375574 0.054878112 -0.01935158 -0.023849752 0.02891541
00000000: 8f5c 3c3d bf45 783d 2dcb 0b3d fe2a 563d
00000010: c36a 0a3d fe49 273d 616f 073e 1f3f db3d
00000020: 7994 64bd 46a2 72bd 5958 893b d0bf 213d
00000030: 8067 8d3d b597 033e 1cb0 8ebc 9bff 153d
00000040: 62c1 8f3c 4164 85bd 6f01 d13d 2e67 323d
00000050: 0548 113c 2ca6 bd3c c16d 053e 738a 4ebc
00000060: a62c 09be 2d1f 02bc 90d0 b1bc d284 f33d
00000070: 8896 babb 3792 9f3d 0cf0 f13d 735b 8dbd
00000080: 7499 debc 874e c43b a7ce 1c3d 05a9 fa3c
00000090: 2046 2e3e 9790 14be b002 213c 9f59 1cbe
000000a0: 2420 553e b416 a03d a680 1b3e 74df 7a3d
000000b0: 62b2 8b3d 6f3d 553d 3d34 90bc 5bdc 763d
000000c0: 0f06 32bc 6fd7 353d 7c03 ee3d b768 833c
000000d0: f8ed 553d 1d79 92bd 675b a83c c27d 9d3c
000000e0: 6ad3 b23d 6fc0 55bc c8a3 c9bb cad5 193d
000000f0: dfc7 603d 3487 9ebc 8e60 c3bc 03e0 ec3c

weight f4 [64, 64]
-0.3688072 0.11052152 -0.038489662 0.22052585 -0.169819 0.28371996 0.0010892798 -0.26766562
0.23459414 0.037027534 0.18499893 0.17547967 0.03918436 0.16298063 -0.04869298 0.058412664
-0.30809793 0.18881297 -0.14875603 0.12710446 -0.12536295 0.12649713 -0.10638967 -0.06868019
0.16141805 -0.26515132 -0.20967686 -0.13588242 0.120327726 -0.23123929 -0.050974622 -0.13523221
-0.15376697 0.10024904 -0.17020974 -0.14361022 -0.21520253 -0.083512895 0.028576506 -0.11159813
0.24307796 -0.2071138 0.008338073 0.20915961 -0.25859842 -0.0632969 0.062938355 -0.08705086
0.0887574 -0.18144687 0.3948828 0.08337469 -0.089850575 0.07526339 -0.0802546 0.038699266
-0.07991703 -0.04410024 -0.35386175 0.100537404 -0.21307485 -0.05611371 -0.11729232 -0.45077357
-0.13588202 -0.27269658 0.032003097 0.015166244 0.032487873 0.10172157 -0.07884705 -0.15486297
0.09250399 -0.14692195 -0.35168326 0.1740969 0.2080696 -0.012082303 -0.16852112 -0.14446877
0.08173452 -0.12567699 -0.13314244 -0.012154438 -0.18019307 0.0074757766 -0.087356225 -0.0027016604
-0.06211157 0.4563464 0.11046532 0.0547253 -0.2913932 -0.05033847 0.008113987 0.090715036
-0.25505236 -0.13230157 0.070074834 -0.14527911 -0.17010401 -0.23525485 -0.13258894 -0.07836964
0.5312703 0.05707329 0.33497074 -0.62116724 -0.10287883 0.23309925 -0.16254954 0.094865054
-0.12823722 -0.20110896 -0.2557698 0.07856959 -0.08939224 0.19540423 0.6144583 -4.8372676e-05
-0.3348159 -0.20268121 0.24399588 0.029166622 0.25738797 0.095284335 -0.14681306 -0.021719001
0.025965134 -0.16037194 0.21505785 0.19581433 0.105664715 -0.15061392 0.041040145 0.19179548
-0.047847476 -0.014263537 -0.101338916 0.051669188 -0.13497894 0.03129725 0.008639738 0.17903829
0.061706 -0.043750398 -0.04304115 -0.18411446 0.030273587 -0.22905836 -0.055910375 -0.19967107
0.06561027 0.19796824 -0.020130042 -0.41659826 0.036385562 0.1849375 0.17295209 -0.12131195
0.123463936 -0.1563008 0.05426985 -0.1447464 -0.3758109 -0.16907166 -0.08281143 0.030539628
-0.117192574 -0.027052589 0.22247629 -0.4917957 0.15827613 -0.41147178 -0.103864074 0.027789878
0.21282162 0.011240325 -0.15829559 -0.07041492 -0.029865658 0.12584242 -0.028786056 0.02252772
0.17934726 0.001175055 -0.058582235 -0.14313541 -0.16622268 -0.04602985 -0.0730278 -0.06397884
0.21381284 0.031451505 0.2927988 0.41904205 0.075790234 -0.17296137 -0.0008895939 0.057587124
-0.23876512 -0.25463367 -0.034553725 0.030564768 0.14827697 0.01837415 0.2330285 0.2014521
0.096690334 -0.18625431 0.15843493 -0.3189502 -0.4560798 -0.3495689 0.11541877 -0.19896166
0.06017163 -0.08903523 -0.40989095 0.25965452 -0.107785985 0.3086468 0.2216644 -0.15685557
-0.22102912 0.067295015 -0.086283505 0.0409779 0.35256445 -0.5609125 -0.11406343 -0.34734917
-0.1523061 -0.17602776 0.10369939 0.32589388 0.024999784 0.10785011 -0.06962345 -0.12509911
-0.11170502 -0.123472884 -0.13635743 -0.23035501 -0.25460517 0.028579215 0.3033245 -0.05107135
-0.10916002 0.11907423 0.052145347 -0.30328834 -0.10184952 -0.096010804 -0.0056671277 -0.65583384
00000000: 4cd4 bcbe 1b59 e23d 56a7 1dbd 87d1 613e
00000010: 08e5 2dbe be43 913e 2ac6 8e3a 780b 89be
00000020: 7239 703e 2faa 173d 5c70 3d3e f1b0 333e
00000030: c87f 203d 65e4 263e 4a72 47bd 1e42 6f3d
00000040: 03bf 9dbe 3058 413e 8053 18be ac27 023e
00000050: 255f 00be 7788 013e d4e2 d9bd 33a8 8cbd
00000060: c64a 253e eac1 87be 88b5 56be c324 0bbe
00000070: 626e f63d fec9 6cbe c4ca 50bd 507a 0abe
00000080: 1775 1dbe 5e4f cd3d 764b 2ebe 8f0e 13be
00000090: 0d5e 5cbe cf08 abbd 4719 ea3c 8f8d e4bd
000000a0: 6ee9 783e a415 54be 6a9c 083c f02d 563e
000000b0: 0367 84be cea1 81bd d3e5 803d b947 b2bd
000000c0: 71c6 b53d 35cd 39be 142e ca3e 59c0 aa3d
000000d0: 9403 b8bd b123 9a3d 865c a4bd 1f83 1e3d
000000e0: 8aab a3bd 74a2 34bd 5e2d b5be 8ee6 cd3d
000000f0: 4b30 5abe 7dd7 65bd f536 f0bd cbcb e6be
00000100: a824 0bbe e39e 8bbe ae15 033d d67b 783c
00000110: 0112 053d 6653 d03d 907a a1bd 6694 1ebe
00000120: bb72 bd3d b572 16be d40f b4be 7546 323e
00000130: 3210 553e daf4 45bc cd90 2cbe 9fef 13be
00000140: 6e64 a73d 78b1 00be 7e56 08be 6823 47bc
00000150: 8884 38be 5cf7 f43b d2e7 b2bd 570e 31bb
00000160: b468 7ebd 3ca6 e93e a43b e23d a327 603d
00000170: 7d31 95be b62f 4ebd 87f0 043c cec8 b93d
00000180: 3996 82be 107a 07be 6583 8f3d 0cc4 14be
00000190: bf2f 2ebe a6e6 70be 65c5 07be 4380 a0bd
000001a0: 5501 083f afc5 693d 4981 ab3e d104 1fbf
000001b0: 23b2 d2bd 92b1 6e3e 6373 26be 9c48 c23d
000001c0: 9e50 03be 82ef 4dbe 42f4 82be 18e9 a03d
000001d0: 4713 b7bd 0c18 483e 244d 1d3f c4e3 4ab8
000001e0: fd6c abbe aa8b 4fbe 0eda 793e d7ee ee3c
000001f0: 5bc8 833e 6f24 c33d 2a56 16be 0cec b1bc
00000200: d5b4 d43c 8b38 24be 2038 5c3e 8d83 483e
00000210: be66 d83d 893a 1abe b619 283d 0966 443e
00000220: b7fb 43bd 9cb1 69bc c78a cfbd 12a3 533d
00000230: eb37 0abe 8c31 003d b08d 0d3c d055 373e
00000240: 6ebf 7c3d 9e33 33bd eb4b 30bd 8088 3cbe
00000250: 5000 f83c 468e 6abe 4702 65bd 9376 4cbe
00000260: ad5e 863d 30b8 4a3e c2e7 a4bc 5e4c d5be
00000270: 0709 153d 4260 3d3e 5a1a 313e 6672 f8bd
00000280: a9da fc3d 510d 20be 104a 5e3d 6638 14be
00000290: 496a c0be 1f21 2dbe 0a99 a9bd 3e2e fa3c
000002a0: a902 f0bd 649d ddbc d3d0 633e a5cc fbbe
000002b0: 2313 223e 6eac d2be b0b6 d4bd 99a7 e33c
000002c0: e9ed 593e 5729 383c 3d18 22be b335 90bd
000002d0: d3a8 f4bc d6dc 003e bcd0 ebbc 0e8c b83c
000002e0: cfa6 373e 4e04 9a3a edf3 6fbd 1792 12be
000002f0: 4736 2abe cc89 3cbd 998f 95bd 5707 83bd
00000300: c1f1 5a3e 4bd3 003d b9e9 953e ae8c d63e
00000310: e937 9b3d c91c 31be a333 69ba 7ae0 6b3d
00000320: d87e 74be 585f 82be 3588 0dbd f762 fa3c
00000330: ebd5 173e 6385 963c 069f 6e3e 7649 4e3e
00000340: 9505 c63d 73b9 3ebe c43c 223e 714d a3be
00000350: 4b83 e9be b2fa b2be ad60 ec3d 9bbc 4bbe
00000360: 8776 763d 1a58 b6bd 3add d1be 70f1 843e
00000370: e6be dcbd f406 9e3e fefb 623e bf9e 20be
00000380: 7555 62be f8d1 893d 68b5 b0bd 71d8 273d
00000390: 5483 b43e f697 0fbf 169a e9bd c0d7 b1be
000003a0: 21f6 1bbe 9f40 34be 5960 d43d 90db a63e
000003b0: 59cc cc3c 85e0 dc3d bd96 8ebd fb19 00be
000003c0: 9ac5 e4bd 5adf fcbd 48a1 0bbe 2fe2 6bbe
000003d0: 9c5b 82be f51e ea3c 594d 9b3e 3130 51bd
000003e0: 4a8f dfbd 31dd f33d 5c96 553d 9c48 9bbe
000003f0: 7b96 d0bd 50a1 c4bd 50b3 b9bb bae4 27bf

bias f4 [64]
-0.05563626 -0.10486092 -0.09509234 -0.061522856 0.012682751 0.018194951 -0.039203644 -0.0358272
-0.016895276 0.026153896 0.005209274 0.035386782 -0.0066346205 0.025620421 0.0057790903 -0.051447146
0.009622577 -0.026559466 -0.058233533 0.05122754 -0.009198119 -0.107090555 0.03795235 -0.13747163
0.018504806 -0.031231837 -0.03355588 0.058934886 -0.05692403 0.05062081 -0.11733724 -0.062320527
0.091747 0.06918553 0.022103285 -0.10089364 0.025172994 -0.0161986 -0.049568877 0.004014482
-0.015580829 -0.025048025 -0.013885075 -0.04262867 0.036992103 -0.0016909697 0.4248151 -0.002168871
0.043840576 -0.025533037 -0.009808494 -0.021533 -0.017888324 -0.079266466 -0.027910242 -0.050556935
-0.018174306 -0.1352912 0.06095588 0.07096711 -0.025968328 0.026863046 0.044818517 -0.06812623
00000000: d9e2 63bd 52c1 d6bd c6bf c2bd 64ff 7bbd
00000010: 50cb 4f3c 940d 953c 0094 20bd 8bbf 12bd
00000020: f667 8abc b240 d63c 8fb2 aa3b bbf1 103d
00000030: 3b67 d9bb ebe1 d13c 865e bd3b 3eba 52bd
00000040: 03a8 1d3c 3d93 d9bc 4986 6ebd f8d3 513d
00000050: b5b3 16bc 4b52 dbbd ec73 1b3d 5dc5 0cbe
00000060: 6497 973c e9d9 ffbc e471 09bd b565 713d
00000070: 2c29 69bd c457 4f3d 824e f0bd cf43 7fbd
00000080: dae5 bb3d 25b1 8d3d f311 b53c 53a1 cebd
00000090: 9837 ce3c edb2 84bc bc08 4bbd ea8b 833b
000000a0: bc46 7fbc 8431 cdbc 3a7e 63bc 669b 2ebd
000000b0: 0885 173d 87a3 ddba 5d81 d93e 9e23 0ebb
000000c0: 2d92 333d a92a d1bc ceb3 20bc f965 b0bc
000000d0: 898a 92bc 7556 a2bd 05a4 e4bc ca14 4fbd
000000e0: 48e2 94bc c789 0abe dfac 793d 3457 913d
000000f0: 88bb d4bc e40f dc3c 9f93 373d c485 8bbd

weight f4 [4, 64]
-0.121052094 0.054598734 -0.051705573 -0.09918018 -0.051793944 -0.045037765 0.009805187 -0.027566807
-0.06713867 0.1510168 0.03977537 0.18537113 0.03328575 0.08163471 0.027797576 0.004072144
0.04914372 -0.07777976 0.14931291 0.27024993 0.08933193 0.08683572 -0.3087677 -0.038620003
0.14884575 0.008277141 0.0025184052 0.32347605 -0.23394282 0.11068946 -0.13692765 -0.075577945
0.1889166 0.22939321 0.0383823 -0.0028858513 -0.051039074 -0.12527706 -0.0002966923 0.26155064
-0.33005393 0.1736547 0.19140178 -0.043063324 0.122149795 0.0013889277 0.17040941 0.03535843
-0.017147778 0.2205639 0.0070915376 -0.035354007 0.023366487 -0.07396687 0.038575884 0.41691208
0.13967651 -0.1364407 0.093773924 0.034698546 0.091901556 0.06185406 0.17858593 -0.15070626
-0.016831573 0.2026859 -0.013138559 -0.05345418 -0.03445048 -0.076103225 -0.04033384 -0.048048846
-0.0059324615 0.32797477 0.050649732 -0.28406617 0.06270122 0.04976291 -0.00022846351 0.057144303
0.1358423 -0.08519475 0.25769418 0.26958525 -0.050453864 -0.08780315 0.14605388 -0.12013632
0.10909806 -0.16642398 0.019832762 0.22922423 -0.05722017 0.123775505 -0.08043693 0.010622606
0.17777067 0.19372402 0.09669131 -0.26819012 -0.0061363773 -0.018443644 0.019179717 0.1132434
-0.0037681146 0.1616824 0.36622065 -0.02613395 0.07527223 0.038196195 0.15398398 0.114425
0.123500675 0.1747128 -0.06258788 -0.00949358 0.112942286 -0.0136132045 -0.13132225 0.29215565
0.18189567 0.04135916 -0.22148925 0.10677718 0.1994312 0.0605162 0.19093151 -0.06166055
-0.13014841 0.007781537 0.06063524 0.14499788 -0.051398315 0.031579137 -0.2004154 -0.25285798
-0.06862534 0.42573714 0.11069258 -0.023263045 0.1494171 0.1488169 0.061795536 0.05996691
0.17064892 0.001066309 0.077185474 0.3064143 0.059946682 -0.11340036 0.14085853 -0.1290475
0.2907131 -0.032801583 0.01130456 0.16065726 -0.09094617 0.28002954 -0.10540604 0.10914305
0.08171436 0.009022008 -0.01744318 -0.074398816 -0.029957665 -0.06870465 -0.28215453 0.15611064
-0.24171416 0.15586683 0.059915703 -0.13673234 0.055031046 0.13671699 0.15087223 0.317677
0.20175906 0.13774297 0.047320716 -0.059562437 0.0777845 -0.14049642 0.095531724 0.030374357
0.256408 0.010031304 0.10911331 0.17536071 0.044938352 0.04843437 0.21328132 -0.08797009
-0.05918056 0.30773863 -0.11848843 -0.049902633 0.07983831 0.38682738 -0.20527102 0.037841335
0.08369964 0.042530347 0.21965566 -0.208536 0.045399863 0.08721319 0.053037502 0.057947032
0.048378132 -0.17529783 0.08309966 0.10641735 0.1544043 -0.3510918 -0.15484293 -0.01856534
0.076296754 -0.2825412 0.15827453 0.16958588 -0.25592357 0.03339691 -0.09188712 -0.010957562
0.046256457 0.05098102 0.15203011 -0.094761424 0.058300707 -0.00084750133 0.09402336 0.10600713
-0.18007296 0.25550497 -0.004009071 -0.13148482 0.09206218 0.13044344 0.17161512 -0.10014611
0.15266745 0.2445843 0.11112446 -0.22844669 -0.15727635 0.1644639 -0.11596176 0.30306825
0.25316492 -0.23349781 0.19488308 0.048973072 0.25556993 0.16616745 0.03540138 -0.13659833
00000000: 29ea f7bd eca2 5f3d 39c9 53bd fa1e cbbd
00000010: e325 54bd 8579 38bd efa5 203c c9d3 e1bc
00000020: 0080 89bd 26a4 1a3e 80eb 223d eed1 3d3e
00000030: a356 083d 1930 a73d beb7 e33c 9f6f 853b
00000040: ed4a 493d ff4a 9fbd 7ce5 183e 335e 8a3e
00000050: a9f3 b63d edd6 b13d cd16 9ebe 0230 1ebd
00000060: 056b 183e d89c 073c d40b 253b a79e a53e
00000070: b58e 6fbe 28b1 e23d c336 0cbe 9cc8 9abd
00000080: 5a73 413e 0ee6 6a3e c236 1d3d 8d20 3dbb
00000090: 590e 51bd a148 00be 5e8d 9bb9 f7e9 853e
000000a0: d4fc a8be 8ad2 313e d4fe 433e 2b63 30bd
000000b0: ac29 fa3d ae0c b63a ce7f 2e3e 00d4 103d
000000c0: 7f79 8cbc 81db 613e 2160 e83b 5dcf 10bd
000000d0: 136b bf3c f17b 97bd bf01 1e3d 8075 d53e
000000e0: 5c07 0f3e 1cb7 0bbe 8b0c c03d 1020 0e3d
000000f0: e236 bc3d af5a 7d3d 3bdf 363e be52 1abe
00000100: 5ee2 89bc e48c 4f3e 1c43 57bc c5f2 5abd
00000110: f21b 0dbd 02dc 9bbd 1935 25bd dece 44bd
00000120: 1865 c2bb 4fec a73e 1876 4f3d 1f71 91be
00000130: 7f69 803d 31d4 4b3d b58f 6fb9 2510 6a3d
00000140: 3e1a 0b3e 967a aebd 7ef0 833e 1407 8a3e
00000150: b6a8 4ebd 23d2 b3bd 268f 153e 080a f6bd
00000160: ce6e df3d 0c6b 2abe 5178 a23c c2b9 6a3e
00000170: b25f 6abd 037e fd3d 1ebc a4bd 700a 2e3c
00000180: 8409 363e 975f 463e 1806 c63d 3750 89be
00000190: aa13 c9bb 2017 97bc c81e 9d3c 28ec e73d
000001a0: 79f2 76bb 1290 253e 4681 bb3e de16 d6bc
000001b0: 5428 9a3d 9d73 1c3d faad 1d3e a857 ea3d
000001c0: eced fc3d eae7 323e 132e 80bd f68a 1bbc
000001d0: 494e e73d eb09 5fbc 5779 06be 6d95 953e
000001e0: dc42 3a3e 3968 293d 14ce 62be ffad da3d
000001f0: b137 4c3e d6df 773d 8d83 433e c68f 7cbd
00000200: a045 05be 43fc fe3b a85c 783d 537a 143e
00000210: 0a87 52bd 2059 013d b239 4dbe 9a76 81be
00000220: 718b 8cbd 38fa d93e cbb2 e23d 2492 bebc
00000230: cc00 193e 7563 183e 511d 7d3d dd9f 753d
00000240: 97be 2e3e 65c3 8b3a 6b13 9e3d 56e2 9c3e
00000250: a78a 753d 733e e8bd 383d 103e 0725 04be
00000260: 59d8 943e f45a 06bd c336 393c 5683 243e
00000270: fc41 babd 0860 8f3e 1fdf d7bd 6486 df3d
00000280: dc59 a73d 0bd1 133c 00e5 8ebc 685e 98bd
00000290: c769 f5bc 06b5 8cbd 8f76 90be 78db 1f3e
000002a0: eb83 77be 8e9b 1f3e 2b6a 753d 9003 0cbe
000002b0: 3c68 613d 8aff 0b3e 407e 1a3e 8fa6 a23e
000002c0: ed99 4e3e 7e0c 0d3e 5ed3 413d bef7 73bd
000002d0: 7b4d 9f3d 4bde 0fbe 23a6 c33d a5d3 f83c
000002e0: e947 833e 575a 243c cd76 df3d c291 333e
000002f0: 4711 383d 1e63 463d 6b66 5a3e aa29 b4bd
00000300: 5167 72bd eb8f 9d3e 10aa f2bd b466 4cbd
00000310: 4582 a33d 3d0e c63e 9132 52be 84ff 1a3d
00000320: b86a ab3d 4d34 2e3d 6aed 603e 768a 55be
00000330: 35f5 393d d49c b23d da3d 593d de59 6d3d
00000340: 2628 463d 4681 33be 2830 aa3d 57f1 d93d
00000350: 291c 1e3e 4ec2 b3be 258f 1ebe 5716 98bc
00000360: 7941 9c3d 3da9 90be b812 223e eca7 2d3e
00000370: 6a08 83be 33cb 083d 502f bcbd 5987 33bc
00000380: 6977 3d3d 79d1 503d c8ad 1b3e 4712 c2bd
00000390: b9cc 6e3d da2a 5eba 528f c03d 441a d93d
000003a0: 0c65 38be 8cd1 823e 865e 83bb f5a3 06be
000003b0: 198b bc3d f792 053e e0bb 2f3e 6719 cdbd
000003c0: db54 1c3e 4f74 7a3e 3995 e33d eeed 69be
000003d0: 0d0d 21be 3969 283e 5c7d edbd c32b 9b3e
000003e0: d59e 813e 0d1a 6fbe 6e8f 473e fd97 483d
000003f0: 10da 823e cd27 2a3e 0a01 113d 6fe0 0bbe

bias f4 [4]
0.36407357 0.35093218 0.38068607 0.34118304
00000000: da67 ba3e 62ad b33e 49e9 c23e 8baf ae3e
