results/double_dqn_checkpoint_seed1.pt (torch_old, 35984 bytes, 6 tensors)

weight f4 [64, 37]
00000000: 4ef8 c8bc b87e dc3c 04b5 19bc cd38 0c3d
00000010: 0777 67bd 3b3f c13c 1a4d cf3c df1f 82be
00000020: 47f2 fabe 3383 18bf aa37 c03b dd0d 08be
00000030: f6fb 413d 1831 313e 3d3d a43e 70cb f1bc
00000040: 76e8 333d 4d6b 253e 497a 263c abc0 9f3d
00000050: e4ef 003e 0ccd a13d 9df6 053e 49f9 c23e
00000060: 21c5 033f c26c 5d3c f932 9abd 424e 723d
00000070: f4b8 19be 66dc c13b 2fd4 5cb9 a55c d4bd
00000080: c067 633e 94f4 9c3e 387e 823f dc7b 25bd
00000090: 0138 0e3c 9697 543e 7271 a1bc a540 30bd
000000a0: 921e fbbd cfbc 063e e520 513e 4354 033e
000000b0: 290a 22be b35f 50be 79de 15bf fe2c 093d
000000c0: bc65 42bc a198 13be d762 d53d fb20 8fbe
000000d0: 5eb2 0b3e 8e1d 79be 9da4 203e 18a0 86be
000000e0: ce21 3f3f 40ef 80be 5669 893e c413 a9bd
000000f0: 2108 45bc d394 4d3d 146e debd d4fe 68bd
00000100: 8387 86bc 4a27 9b3c 1911 513e b9f7 33be
00000110: b0b3 9c3d 2eee e5bd c57f 84be 6d92 17be
00000120: 2080 9dbb f87c 00be 147c a6bd 7014 a4bd
00000130: 8378 18be ad32 cd3b 2757 dcbd e159 503e
00000140: 7b6f fbbd 027e 21be 9221 9e3d 5c14 9abf
00000150: ab5f bd3b 4a85 303e d804 03be ef1e 8c3e
00000160: 499a 08bc 5e1e 97bd e9b5 77be 52a2 99bd
00000170: 189a 043e 3195 93be 2288 543e 1336 3b3e
00000180: c6ce 11be c80d 323d ad51 dcbc 6044 d13d
00000190: ff17 eebd 8ae4 123e cdfc da3e 71d4 8cbe
000001a0: 271a 3bbd 7931 1fbd b371 0fbe 44d9 053e
000001b0: 82ff 33be 1704 55be ada9 8ebd 49ff 093e
000001c0: 17c7 be3d bf5c 7c3d 084d 083e 04a9 8fbe
000001d0: 31fc 40be 4ae1 28bd 0322 4e3e 2a93 1fbe
000001e0: bc1f 11be c2be 45be 3a89 f23c 0d15 5bbd
000001f0: 82e0 e83d 1fed 9bbd 2ca0 763d e3de e0bd
00000200: 7fc4 5e3d f537 0ebe c504 b8be 8207 3c3d
00000210: 4f5a 03be ccaa 8dbe 7750 60bd 1d1c e03d
00000220: 2421 333e d249 a13e f59a 533e 804d 4bbb
00000230: a4a6 debe b347 183e 3d52 193d 3e69 443d
00000240: 0988 523d 5307 90be 5500 123e 268f b9bd
00000250: cbf6 653c 5ade 263e a580 b93d f76a bc3d
00000260: a6fd ba3d dcbe 9c3d 1f25 9d3d 90d8 003e
00000270: 2d82 243e d6e9 d23d 7391 96be c031 dcbc
00000280: 3b7d 56bc 39fb 973d 9c85 b73e c1be a7bb
00000290: bd77 c73d 0a72 133e 82ef 093c 4524 443d
000002a0: 3d3c cf3e dbc3 27bf 014f 0ebf 1993 c5be
000002b0: 05c1 04c0 53c6 acbd 635a 683d d861 fd3d
000002c0: eb34 fa3d 3a49 583e c3c9 97bd 57ec 123e
000002d0: 79ac 7dbd 13fb 313d 3772 3ebd 4706 2c3d
000002e0: 1268 a6bc 3465 1d3e 0923 5bbd d073 05bd
000002f0: 2ad5 dfbd b906 8dbd 8e8e 8d3d 5d95 1a3e
00000300: 465b 333e 07ff 343d 9c1e 00bc 6582 17bd
00000310: d4a7 7cbd eafb 5bbd d945 debd 33b8 13bd
00000320: 92ff b13c 3034 543e 6abd a33d b57e 323e
00000330: 141b 0e3e 880f bfbd c8f4 88bc d2e9 aabd
00000340: c5eb 473d 20d8 db3c e48d df3e 48a0 5ebf
00000350: a12a 16bf efec 38be 113d 0cc0 11fa 07bd
00000360: b6c5 593e 4c11 193d d9d2 203d 6c7d db3e
00000370: 08a8 763c 8be7 a63c 098b 3dbc 4e9f cc3c
00000380: 65b5 903d a525 383d 5264 443e 465e 3dbd
00000390: c9cd 793e 2c27 8a3c 0207 203e e797 053e
000003a0: 55c2 5ebe 8803 8d3a 5703 803d 116f 373d
000003b0: cad8 c63c a776 cdbd 2b65 473e 31ad 213e
000003c0: 8da3 493e 1f36 093d 0d4b 22be 3669 11be
000003d0: 3cba 0c3d 9228 703b 3dc2 10bc 3c6f 36be
000003e0: c345 2fbd ddb1 a23e ee1e 613e 9d6e e03e
000003f0: d16d 903e 4cce dabd ba3d 933d a003 d4bd
-0.024532463 0.026915893 -0.009381536 0.034233857 -0.056509998 0.023589721 0.02530532 -0.2541494
-0.49012968 -0.59575194 0.0058660107 -0.13286538 0.04735943 0.17303884 0.3207797 -0.029515952
0.043922864 0.16154213 0.010160991 0.078004204 0.12591511 0.07900438 0.13082357 0.38080814
0.5147267 0.013514699 -0.075292535 0.059156664 -0.1501196 0.005916166 -0.0002105988 -0.10369233
0.22207546 0.30655348 1.0194769 -0.040401325 0.008680345 0.2076095 -0.019707415 -0.0430304
-0.1226169 0.13157962 0.20422705 0.12825112 -0.15824188 -0.20349006 -0.5854259 0.033490174
-0.011865076 -0.14413692 0.10419243 -0.2795485 0.1364226 -0.2432768 0.15687795 -0.26294017
0.74660957 -0.25182533 0.26838177 -0.08255723 -0.012025864 0.050190758 -0.108608395 -0.056883648
-0.016422039 0.018939633 0.20416678 -0.17574967 0.0765146 -0.1122707 -0.2587873 -0.14801951
-0.0048065335 -0.12547672 -0.08129135 -0.08011711 -0.14889722 0.0062621445 -0.107588105 0.20346786
-0.122771226 -0.15770724 0.07721247 -1.2037463 0.005779227 0.17238346 -0.12794816 0.2736735
-0.008337566 -0.07378839 -0.24190487 -0.07501663 0.12949407 -0.28824762 0.20755056 0.18282346
-0.14239034 0.043470174 -0.026894415 0.102181196 -0.11625671 0.14344993 0.42770997 -0.2750583
-0.045679238 -0.03886554 -0.14008217 0.13071162 -0.17577937 -0.20802341 -0.06965957 0.1347629
0.09315317 0.061611887 0.13310635 -0.28058636 -0.18846203 -0.041230477 0.20130162 -0.15583482
-0.14172262 -0.1931105 0.02960645 -0.053486872 0.113709465 -0.07613587 0.060211346 -0.10980012
0.054386612 -0.13888533 -0.3594114 0.045905598 -0.12827419 -0.2766937 -0.054764237 0.10942862
0.17493111 0.31501633 0.2066458 -0.0031021535 -0.43486512 0.14871101 0.037431944 0.04795193
0.051399264 -0.28130588 0.14257939 -0.090605065 0.014035891 0.16295758 0.0905774 0.092000894
0.09130411 0.07653591 0.07673096 0.12582612 0.16065283 0.10298507 -0.29407844 -0.026879191
-0.013091381 0.07420964 0.35844123 -0.005119175 0.09739635 0.14398971 0.0084189195 0.04788615
0.40475646 -0.65533227 -0.555893 -0.3858879 -2.074281 -0.08436265 0.056726824 0.12372178
0.122171246 0.21121684 -0.0741153 0.14347969 -0.06193206 0.043452334 -0.046495643 0.041998174
-0.020313296 0.15370637 -0.05350021 -0.03258115 -0.1092933 -0.06886048 0.06911956 0.1509604
0.17515287 0.044188526 -0.007819798 -0.03698959 -0.06168349 -0.05370704 -0.10853166 -0.036064338
0.02172831 0.20723033 0.07995112 0.17431147 0.13877517 -0.09329134 -0.016718283 -0.08345379
0.04880883 0.026836455 0.4366294 -0.8696332 -0.58658797 -0.18059133 -2.1912272 -0.033197466
0.21266827 0.03737001 0.03926358 0.42869127 0.01505471 0.02037408 -0.011568793 0.024978306
0.07065848 0.044957776 0.19178894 -0.046232484 0.24394907 0.016864382 0.15627673 0.13046227
-0.2175382 0.0010758499 0.06250637 0.044783656 0.024273295 -0.10032397 0.19472186 0.15788724
0.19691296 0.03349888 -0.15848942 -0.14200291 0.034357294 0.0036645276 -0.0088353725 -0.1781587
-0.04279114 0.31776324 0.21984455 0.4383439 0.28208783 -0.10683879 0.07189508 -0.10352254

bias f4 [64]
00000000: 9dc7 eabc 398c 4f3d d040 353d 65bc 573d
00000010: 68f0 2cbc 5c30 bd3d 0ce4 a0bb b5e2 873d
00000020: 1d54 71bc d6af 0c3e 15f1 803d 1bee 103d
00000030: b494 5a3d ace3 df3d 3383 443d 7cc9 003d
00000040: 3744 a53d 0c78 5bbc cd29 123e bfcb c73d
00000050: 6a32 903c bd7f 43bc 0ee5 8ebd c116 9bbc
00000060: ef3a 21bc a601 e6bc fdfe 9b3d 972c 433d
00000070: a1ee d63d 9024 173e 0074 b93c ed86 ec3b
00000080: fa90 323d dc87 973d 8980 c6bc baa8 443e
00000090: a472 f23c d4db 6b3b d590 cebd 8081 1d3d
000000a0: b527 febd e79f c23d a5e3 93bc 5273 0b3e
000000b0: 4057 153e d174 9abd 038b a03d 85a2 fe3d
000000c0: f691 e23d c3fa a23d f675 a0bc ab52 99bd
000000d0: f2c9 f13c 0646 b0bd 0d66 bb3b 2a2f 50bd
000000e0: da3a 013d 2cdb 12bc 29cb e23c 058b babd
000000f0: a969 5abd bb55 48bd 01d1 8abc e2bd 1cbd
-0.028659636 0.050670836 0.044251263 0.0526699 -0.010555364 0.092377394 -0.004909998 0.06635038
-0.014729527 0.13738951 0.06295983 0.035383325 0.05336447 0.10932097 0.047976684 0.03144215
0.080696516 -0.013395321 0.14273758 0.09755658 0.017602164 -0.011932311 -0.069772825 -0.018931748
-0.009840711 -0.028076958 0.076169945 0.047649946 0.104947336 0.14760041 0.02263832 0.007218233
0.04359529 0.0739896 -0.024231212 0.19204989 0.02959568 0.0035989182 -0.10086218 0.03845358
-0.12409917 0.09503155 -0.018052885 0.1361821 0.14584064 -0.07541812 0.078390144 0.12433342
0.11062996 0.07957985 -0.019587498 -0.07486471 0.02951524 -0.08607106 0.0057189525 -0.05082623
0.031550266 -0.008963387 0.027684765 -0.09108547 -0.05332342 -0.048909884 -0.016945364 -0.038267024

weight f4 [64, 64]
00000000: bec9 c33c d25e ee3d 7220 b03d 575d 50bd
00000010: 5b1d b6bd c1b6 d53c 3efb 4d3b 6afd 403d
00000020: fecd a8bd e250 da3d 4bf7 e9be 4919 13be
00000030: fcd7 44be 8a88 4cbe f4a8 2d3e 9a5b 733e
00000040: ec1c 0cbd 6e9e 153e 1d9f 06be 6ea8 8c3d
00000050: 7ab4 58be 088a 313c 0e3d 1abe 19ab c93d
00000060: 3084 93be 6300 05be b909 6e3e d2bf f53d
00000070: 0347 0bbd d327 89bc 7fff cd3d 93a0 333e
00000080: 5c35 173e 6d80 293d 40b1 49bf 1253 4bbd
00000090: 16b8 e1be 3ac6 c03d 4fe6 1f3e 0669 87be
000000a0: 7e7a f23d b2e4 87be 8033 9ebe 60f8 913e
000000b0: 7e67 5b3e 7b85 15bd 019d b6bd 0b2d 3cbe
000000c0: bd7e f8bb 4dc0 0dbd 4d4e 3cbf 58a3 2fbe
000000d0: a991 79be 8a26 8bbe ca06 673e 5fdf 0bbe
000000e0: 42df 4ebd d480 a1be 9ea8 0dbe e72e 44bd
000000f0: 874c 2ebd 1a3b 473d 0550 2fbe 7796 6bbd
00000100: d93c 58be ecca ddbd 702f 3f3e cdb9 2fbe
00000110: c28f 65bc 4a72 1ebe dc5d 353e c126 61be
00000120: e91d 8b3d 6572 fdbc dff9 0f3b 2c6a c2be
00000130: 72f5 50be a42c cebe 6a9b 89bd 76e8 89be
00000140: 4770 a73d 5b95 52be 0385 0dbe a357 eb3d
00000150: 62b6 38be 5f1d 04bd 243b 10be 1342 cf3c
00000160: e353 213e 74bb 053e 7897 0e3e 1380 9c3d
00000170: 99dd 16be fd67 07be 4852 76be 82b1 6cbc
00000180: a2e6 37be e83b 8c3e b95b f2ba f8ab 45be
00000190: 4f6f 873d d76a 97be 5128 92be ab83 05be
000001a0: 8536 3d3e db36 a5be 7dc8 c33d 6a52 77be
000001b0: 58d3 c23e 7c9a 7fbd 4180 acbe 82e6 81be
000001c0: b498 0c3e 1905 da3d 2d56 0dbe 6821 4cbe
000001d0: 830b 8abe c656 77bd f02a 81be 54e1 6abc
000001e0: 61a6 0dbf dcdb 47bc ba2e 0d3e 9364 0abf
000001f0: 48a0 f7be 99bd 923e 559e 953d 3f85 c6bc
00000200: 5740 19be 64b3 b0be 1f18 703e 670c 05bd
00000210: c9cc d0be de61 e4be cda6 063e 9718 553e
00000220: 53c1 06bf 6e5a 65be 05e5 96be df4e 6c3d
00000230: e8f9 4e3d ffc6 c43d e691 d33d 5614 2d3d
00000240: b6f5 ce3d bc83 ecbe 4c48 babc 29f9 31be
00000250: 1a58 7a3e dfdc 2dbf 1282 34bd 1bee b0be
00000260: e03c aa3e e0b6 f6bb 02cb ba3c 2198 85bc
00000270: f2d9 f23c c941 523d f5b3 063d 4654 3c3d
00000280: b719 a13c d2be 39be 0171 78be 54d4 4e3e
00000290: 0ea3 8a3e 9e75 813c 7bc6 b4be e3b8 823e
000002a0: 8c7f 0cbe 2ac2 8c3d e6ce 113e d6a8 153e
000002b0: 752f 7ebe 8898 2e3e fcaa 83bc 4844 da3d
000002c0: 5272 2ebe 5eba 003e 0da0 1bbf 5122 2abe
000002d0: 1ac4 a63d 78e3 dc3c fb3f fabd 8a27 15bd
000002e0: fbac e4bd 87b8 d9be 718a f4bd 42f4 a2be
000002f0: 21f8 9e3c 6dcd 7bbe ccbc b0bb 4b3b 01be
00000300: ee95 8c3e 6354 993d d777 34be 4145 3b3d
00000310: de20 71bc 182d aabd c8ff 20bc 8443 4f3e
00000320: c1af 1dbe a2bd da3e a341 d23d 96a9 c23e
00000330: 9e30 22be baa2 d13d 0752 76bd f92d a73d
00000340: 333e 23be 92ed 0ebe 5098 423c 6dc4 9b3d
00000350: 126e 7ebe 458c 093d bcf6 1d3d 3aaa ba3c
00000360: 1b1a 163e 378a fe3c ca9e 173e f8e0 54be
00000370: 15fc 8b3e d182 c1bc c0c8 84bc 683d 3b3d
00000380: 5d50 3fbe 7400 71be afb4 ef3a 2c12 bb3d
00000390: 8698 cabe 77cc 12bd 0719 4c3d 294f d6be
000003a0: fe1a 26be 2fa0 803d fff6 30be 65ad 80bd
000003b0: 3294 453e 1365 63be 1907 f9bd 50f0 ffbd
000003c0: 73a2 543e 336f f13d 1920 f4bd fcf2 3b3e
000003d0: cd30 87be 6ce5 3b3d ef77 97bd 260d e33d
000003e0: 3480 c5bd 3c58 edbc 9fa5 3ebe 2de2 87bd
000003f0: 5892 0ebe b6f3 0bbe 6b16 4f3d 8c64 163e
0.02389991 0.11639179 0.085999385 -0.050870266 -0.08892318 0.02608812 0.003143027 0.047116674
-0.08242415 0.106599584 -0.45696482 -0.14365114 -0.19223017 -0.1997396 0.16958982 0.23765412
-0.03420727 0.14611217 -0.13146634 0.06868063 -0.21162596 0.010836132 -0.15062353 0.098470874
-0.2881179 -0.12988429 0.23245896 0.119994774 -0.03400327 -0.016742622 0.10058498 0.17541723
0.14766449 0.041382242 -0.7878609 -0.04963977 -0.4408576 0.09412809 0.156152 -0.26447314
0.1183977 -0.26541668 -0.30898666 0.28509808 0.21426198 -0.03650425 -0.08916665 -0.18376558
-0.0075834678 -0.03460722 -0.7355698 -0.17152154 -0.24371971 -0.2717784 0.22561184 -0.13659428
-0.050505884 -0.315436 -0.13833854 -0.047896292 -0.04255345 0.048640348 -0.17120369 -0.05751654
-0.21116962 -0.1082972 0.1867044 -0.17160721 -0.014011325 -0.15473285 0.17711586 -0.2198744
0.06792814 -0.030938337 0.0021969003 -0.37971628 -0.2040613 -0.40268433 -0.06719096 -0.26935166
0.08175712 -0.20564787 -0.13820271 0.11491325 -0.18038324 -0.032254573 -0.1408506 0.025300061
0.15754656 0.13059789 0.13924968 0.07641616 -0.1473297 -0.13223262 -0.24054825 -0.014446618
-0.17959073 0.27389455 -0.001849047 -0.19303882 0.06613027 -0.295737 -0.28546384 -0.13038509
0.18477829 -0.32268414 0.095597245 -0.24152532 0.38051867 -0.062403187 -0.336916 -0.25371176
0.13730127 0.106455036 -0.13802405 -0.19934618 -0.26961908 -0.060385488 -0.2522807 -0.014335949
-0.55332 -0.012198415 0.13787356 -0.54059714 -0.48364472 0.28660277 0.0730559 -0.024233459
-0.1496595 -0.34511864 0.23446701 -0.03248253 -0.4078124 -0.44605917 0.13149567 0.20810162
-0.5263874 -0.22397777 -0.29471603 0.057692405 0.050531298 0.09608268 0.10330562 0.042255722
0.101054594 -0.46194255 -0.022739552 -0.17380203 0.2444767 -0.6791515 -0.044069357 -0.3455666
0.3324957 -0.0075291246 0.02280188 -0.016307892 0.02964494 0.05133227 0.032886464 0.045978807
0.019665582 -0.18139198 -0.24261858 0.20198184 0.27077526 0.015803155 -0.3530768 0.25531682
-0.1372053 0.06872971 0.14239082 0.14615187 -0.24822791 0.17050374 -0.016072743 0.10657555
-0.17035797 0.12571093 -0.60791093 -0.16614653 0.08142872 0.026963934 -0.122192346 -0.03641466
-0.11165806 -0.42523596 -0.11940468 -0.3182698 0.019405426 -0.24590082 -0.0053936 -0.12620275
0.27458137 0.074867986 -0.1762384 0.045720343 -0.014717309 -0.08309382 -0.009826608 0.20240599
-0.15399076 0.42722803 0.102664255 0.3802001 -0.15838858 0.10236116 -0.06013682 0.081630655
-0.15941696 -0.13957813 0.011877134 0.076058246 -0.24846676 0.033581037 0.038565382 0.022786248
0.14658396 0.031071765 0.14806667 -0.20788944 0.2734076 -0.023621948 -0.016209006 0.04571286
-0.18683 -0.23535329 0.0018288101 0.091343254 -0.3956949 -0.035839524 0.049828555 -0.4185727
-0.16221234 0.062805526 -0.17281722 -0.062830724 0.19294813 -0.22206526 -0.12159557 -0.12497008
0.20765094 0.11788788 -0.11920185 0.1835441 -0.2640442 0.04587309 -0.073959224 0.11086492
-0.096435934 -0.028972737 -0.18617867 -0.066349365 -0.13923013 -0.13667187 0.05055849 0.14686793

bias f4 [64]
00000000: 7173 babc c331 4c3d c4e2 093d e88b 853d
00000010: 9637 fbbc c25f 4e3e 1643 d93d 1a23 08bb
00000020: a5d7 10bd 299e 263c a804 d63d a4b3 00be
00000030: 58df 293c e89d 903d 71b6 923c 5d9a 89bd
00000040: dedd 9cbc 6d06 09bd 5c51 ce3c c8d0 703d
00000050: 1ebe cf3c 2e91 c73c 7cb0 e73d abc5 d3bc
00000060: 812a e63c cbde 8f3d b0e5 cebd 5a0a 7b3d
00000070: 3b0e c53b 6ba0 70bd aca2 093c 3a8f 12be
00000080: 57c0 16be 11b6 7abc 3d5e ca3d a77d be3d
00000090: b32c c43c fdac b53d cce2 fdbc 8f98 cc3d
000000a0: 4764 7cbd 4269 f23d a287 80bd e3fe 9c3d
000000b0: e291 bdbd fcb3 883d 2ccb c8bd ff40 363d
000000c0: 356e 883d 07aa b83c d9b6 f03c 3ed2 d13e
000000d0: 3bcc 163e b296 42bd da51 12bd 7dde 0fbd
000000e0: 230d a53d 073d ac3c 1d59 a3bd b806 e73d
000000f0: b79f 763d e78d 10bd 87c2 353d 1e38 84bd
-0.022760125 0.049852144 0.033663526 0.065208256 -0.030666154 0.20153716 0.10608499 -0.0020772875
-0.035361905 0.010169544 0.10450107 -0.12568527 0.010368191 0.07061368 0.01790926 -0.067188956
-0.019148763 -0.033453394 0.02518528 0.05879286 0.02535921 0.02436122 0.113129586 -0.025851091
0.02809644 0.07024916 -0.10102403 0.06128917 0.0060136593 -0.058746736 0.0084006 -0.14312449
-0.1472181 -0.015302197 0.09881256 0.0930131 0.023947095 0.088708855 -0.030991934 0.09990036
-0.06161907 0.118364826 -0.0627587 0.07665803 -0.092563406 0.06674954 -0.09804377 0.04449558
0.06661645 0.022542013 0.029384064 0.40980715 0.14726345 -0.047506995 -0.03572259 -0.03512429
0.08059146 0.021025194 -0.079759814 0.112805784 0.06021091 -0.03529158 0.04437497 -0.06456016

weight f4 [4, 64]
00000000: c9c3 5d3d 53fd 723e a960 b6be 7de3 0d3e
00000010: acff 723c 0fb7 023e ff9f c73d c8ca dabd
00000020: 85ac 7abc 3365 a63d 29fb 223e 42e2 a33c
00000030: 99ce b33e 7ed7 cf3d 4545 e83d 4509 c4bd
00000040: 5709 d2bd 7b3b a13d e829 1dbc 6b24 c73d
00000050: fe62 3abb f79b 0d3d d479 813e 3cbe 953e
00000060: 6ee4 9abd ea3e be3d a71b 48bd e878 873d
00000070: 9bd6 3f3d 9b18 5ebd 7aaf b93e 1c08 3bbd
00000080: 7456 01be 1115 81bd 0000 f03d e212 053e
00000090: 1dbf e3bc f86d 8d3e 88c3 83bb 26cf 033d
000000a0: 16a8 debd 0a0d 99be 5d86 22be e4f8 bf3d
000000b0: 8f52 2ebd a4b2 003e 4ae0 4cbd 0b17 27be
000000c0: 92cd 7f3d a0c3 39bd 2d76 5b3e 90a8 1c3e
000000d0: d3ac 163e 34de 8dbd b512 e23d d07e 87bd
000000e0: deb6 92be ee66 ffbc 2ed0 17be 2547 1a3e
000000f0: a273 7e3e 1f85 84bd 0a39 613e 21cb 4fbd
00000100: 5736 d13d 3bc2 dabc 941d aabd 7b00 cf3d
00000110: 3180 043d 273a a43d 2cd2 b43d 0576 eabc
00000120: e980 71bd bbfc 2b3e 3d68 233e 8cdf 12bd
00000130: 81f6 873e ec52 3d3e dade c13d 6b6e 42bd
00000140: 6a35 833e bbad ce3d 552a d03d be1a c13d
00000150: 7b12 133e 3a82 093e b880 4e3e df24 cb3e
00000160: fdaa bfbc bebe 563d 99fc 74bc 4f4a f63d
00000170: 6455 1ebe 8134 78bd f972 6f3e e828 95bd
00000180: 0c0a 3abd acf5 8f3c 8bd6 953d 220a bf3e
00000190: 3067 cc3d d341 6c3e 8d05 613c 4081 c83d
000001a0: 09b9 50bd 9087 4e3e ff90 c6bd a520 16be
000001b0: 09be dabd e1e7 e13d 5bf8 96bd c6f1 8a3e
000001c0: bd9c cb3c fa3b 6cbd ad52 c83e 67e8 0e3e
000001d0: 8abc ec3d bcc7 6ebd ea63 413e 4dfb 5c3d
000001e0: 4ebb 313e dd93 9cbd 5d84 0ebd 4471 043e
000001f0: c79c 473e 9cbd 62bb 3622 003e 2e43 0dbe
00000200: 4afd 583e cebe 463e 1dc3 75be cf42 543c
00000210: d94b 873d 1e34 aa3d 13cb 923d 31e3 f9bc
00000220: 46bf 8ebe 97f5 693e 5766 933e a853 e7bd
00000230: 8ab4 823c 0b58 903d 783e 1e3c 5b9f 3f3d
00000240: 762f a33d ea0f 183e 2f66 973d 402d 9c3d
00000250: 2495 863c 8e98 95bd 3077 823e daf4 0e3f
00000260: f743 39be eaa8 113c 2452 dfbd beb1 a83d
00000270: 0b04 63be e69f 13bd f49d 173e 359c c0bb
00000280: b0fa 153b eefb 05be a0c1 df3d 55d2 3a3e
00000290: eea1 bfbd 93b0 c13c f008 503e c84b 5b3e
000002a0: b8b2 bfbd 75ad c9bd 04b5 b6bd a0a6 193e
000002b0: b478 f2bd 046d 913d f4da 933d a958 903e
000002c0: 60e4 4b3d f948 bd3c f01d f9bd 0c7d 1c3e
000002d0: 5a5a ed3d 9665 fa3b 7ee7 59be c6f7 433e
000002e0: 21c9 fc3d f609 003e 73bb d93d dc81 3639
000002f0: 24b1 ac3e aacd 0f3e 35fb c53e e6aa 50bd
00000300: 4962 f73b 68e2 8ebd a958 24bd 71d1 8a3c
00000310: 8245 133e d4b4 b63d d8f4 143d d347 e23d
00000320: 3871 c93c e0d2 2cbd 2de0 e73d 72df b2bd
00000330: 76e3 fd3e caad 893e 7a97 94bd 07d9 e53d
00000340: e97a 063e 3fb1 94be 7522 d13d 4f46 4b3e
00000350: 9b1d 6d3e 5714 9c3d fd06 193e 3638 eabb
00000360: 8d1f 073e cde5 813e 7fb9 413c a7a6 873d
00000370: 5a6b 933d 1aab 83bd 7f93 803e 451b 99b9
00000380: a93d 56be d83a 3b3e ddae 033d ef34 73be
00000390: 2dc1 9b3e a4a0 103e 8a6e 343e d751 293d
000003a0: f5e4 61bd 9e81 433c 824d b0bd 02ce 3d3e
000003b0: 3a11 8dbd 793c 353e 71aa 72bd 5b4f 193e
000003c0: 219b af3d ed06 a6be 7fa8 703e fa8a 213e
000003d0: 7ba6 a83d d671 0e3a a0d2 04be ec2d 27bd
000003e0: 47db 36be 2742 08be 5a01 ecbd 2ee2 263d
000003f0: 95af 003e bfc1 e9ba bbc0 113e d973 1bbe
0.054141793 0.23729448 -0.3562062 0.13856311 0.014831465 0.12765144 0.09747314 -0.10683209
-0.015299921 0.08124771 0.15916122 0.02000535 0.3511856 0.10148524 0.11341337 -0.095720805
-0.10255688 0.07872673 -0.009592511 0.09723743 -0.0028440352 0.034572568 0.2528826 0.292467
-0.07563101 0.09289344 -0.048854496 0.06614858 0.046835523 -0.054222684 0.3626669 -0.04566203
-0.12630635 -0.06302846 0.1171875 0.12995484 -0.02780109 0.27622962 -0.004021112 0.032179974
-0.108719036 -0.2989276 -0.15871568 0.09373644 -0.042559203 0.12568146 -0.050018586 -0.16317384
0.062451907 -0.04535258 0.21431799 0.15298676 0.14714365 -0.069271475 0.11038724 -0.066159844
-0.28655142 -0.03117701 -0.14825508 0.15066202 0.24848798 -0.06470703 0.21994415 -0.05073083
0.10215443 -0.026703944 -0.08306423 0.101075135 0.032348815 0.08018904 0.088291496 -0.02862073
-0.05896083 0.16795628 0.15957732 -0.035857722 0.26555255 0.18488663 0.09466334 -0.047468584
0.2562669 0.1009173 0.10164324 0.09428929 0.14362518 0.13428584 0.2016629 0.39676568
-0.023396963 0.052428 -0.014952802 0.12025892 -0.15462261 -0.060596947 0.23383702 -0.07283193
-0.045419738 0.0175732 0.073163114 0.37312418 0.09980619 0.23071985 0.013734234 0.097902775
-0.050957713 0.201689 -0.096956246 -0.1466089 -0.106807776 0.110305555 -0.07371589 0.27137583
0.024855012 -0.057674386 0.39125577 0.13955842 0.115593985 -0.05829595 0.1888577 0.053950597
0.17356607 -0.0764539 -0.0347942 0.12933832 0.194934 -0.003459788 0.1251305 -0.13795158
0.21190372 0.19408724 -0.24000211 0.012955382 0.06606264 0.08310722 0.071676396 -0.030503841
-0.27880305 0.22847591 0.28789017 -0.11295253 0.015955228 0.07048043 0.009658448 0.046782833
0.07968037 0.1484982 0.07392537 0.07625818 0.016428538 -0.07304488 0.25481558 0.55842364
-0.18092333 0.00889037 -0.10904339 0.08237027 -0.22169511 -0.036041163 0.14806348 -0.0058779963
0.0022885017 -0.13084385 0.10925603 0.18244298 -0.093570575 0.023643767 0.2031591 0.21415627
-0.0936026 -0.098475374 -0.08921245 0.15004969 -0.118394285 0.07100871 0.07219496 0.28192642
0.049778342 0.023106085 -0.12163913 0.15282077 0.11589499 0.0076415045 -0.21279714 0.19137487
0.1234305 0.125038 0.10631456 0.00017405249 0.33728898 0.14043298 0.38668218 -0.05094423
0.0075495583 -0.06976777 -0.040123615 0.016945573 0.14381984 0.08921209 0.036366314 0.11048856
0.02459012 -0.042193294 0.11322055 -0.08734025 0.495876 0.26890403 -0.07255454 0.11223035
0.13132824 -0.29041478 0.1021165 0.1985104 0.23155825 0.07621067 0.14944072 -0.007147814
0.1319563 0.25370637 0.011824011 0.06623583 0.0719821 -0.064291194 0.2511253 -0.00029202751
-0.20921959 0.18284166 0.032149184 -0.23750661 0.3042082 0.1412378 0.17620292 0.041337814
-0.05514999 0.011932759 -0.086085334 0.18535617 -0.06888051 0.1769885 -0.059244577 0.14971678
0.0857451 -0.3242716 0.23501776 0.15775672 0.08234879 0.0005433833 -0.12970972 -0.04081528
-0.17857085 -0.13306485 -0.11523695 0.040743046 0.12566979 -0.001783423 0.14233677 -0.15180911

bias f4 [4]
00000000: 4e67 d13e c3f5 cd3e ec94 c33e 68c2 be3e
0.40899128 0.40226564 0.38199556 0.37257695
