results/dqn_checkpoint_seed3.pt (torch_old, 35984 bytes, 6 tensors)

weight f4 [64, 37]
0.057944693 -0.25349134 0.075466 0.053769246 0.31718567 -0.21911839 0.06128504 0.2770111
0.38988063 0.60697424 0.034218114 0.064003326 0.1377673 0.04112396 -0.19337633 0.09250179
-0.1685444 -0.014581469 -0.05606916 -0.24782975 -0.101893745 -0.07418207 0.08035459 -0.087738946
-0.063117504 -0.046169654 -0.5503552 -0.08271426 0.20788422 0.6520574 -0.20994848 0.06848061
-0.27222213 -0.06944241 -0.1678117 -0.04750378 0.032698575 -0.37232676 0.13207439 -0.043331735
-0.18604246 -0.14117332 -0.022499545 0.085679665 0.12480335 -0.046882547 -0.34056976 -0.09726064
-0.10084349 -0.17104079 -0.02979584 -0.033650864 -0.48881465 0.21154091 0.032952912 -0.03984085
-0.29348287 0.118615665 -0.07279705 0.21858089 0.074430786 -0.1242748 -0.4873426 0.03818823
0.3739458 0.066033006 -0.5489805 -0.043986913 0.25254387 0.16533057 0.13143097 -0.4135375
-0.1279204 0.051588397 0.278952 0.04437914 0.24079964 0.02092876 0.099970736 0.3013942
0.22223312 0.044685625 0.058177903 -0.30722067 0.18942493 0.15753645 0.08875042 0.05892883
-0.019913444 0.27921116 0.2623886 0.22451095 -0.042595576 0.053673983 0.11109093 0.2069503
0.1508388 0.06519526 0.13694511 0.2343329 0.16852394 0.19605401 0.22112148 -0.09478407
0.49281105 0.09217981 -0.017259972 -0.11473951 -0.90026444 -0.0020662574 -0.006329142 0.059739597
0.26556838 -4.3146996e-05 0.14703082 -0.071417265 0.012658 -0.0001623405 -0.16272733 0.07166022
-0.45914403 0.013242346 0.05222158 0.02101928 0.117225 0.12955086 0.50354296 -0.8337613
-0.11354236 0.043758314 -1.4432535 0.0059516355 0.11299215 0.09213431 -0.053638365 0.08398878
-0.2278861 -0.1029069 0.1183983 0.2605986 0.59017086 0.13097018 0.0950323 0.36611202
0.26624617 0.10169262 0.02954623 -0.0027513113 -0.13928762 0.09108218 -0.18539308 -0.07359163
0.054329656 0.45133966 -0.3544492 -0.64615995 -0.40346712 -1.31381 0.035863724 0.18984869
-0.012489326 -0.062905915 0.12107616 -0.117535084 -0.25857604 -0.08901802 -0.13729875 0.022467654
0.06252166 -0.10098506 0.08997962 -0.20040391 0.055852797 -0.16239214 0.17889515 0.15186363
-0.04488098 -0.30751416 -0.087046206 0.18813317 0.0646851 0.030015852 -0.45565057 -0.018171199
0.049694624 0.15618417 0.24992679 0.30476555 0.14383931 -0.14984289 0.566488 -0.69235605
-0.7212521 -0.48513395 -2.2665634 -0.067341544 0.058468632 0.0777966 0.090076275 -0.074611716
0.09889459 0.23342589 0.32550555 0.006337571 -0.11648387 0.045154307 0.24364135 0.11196912
0.13672271 0.099459805 -0.119679704 0.15917875 -0.037985966 -0.025216762 -0.072062805 -0.032673646
0.15652303 0.17059268 0.09537474 -0.13001502 0.020035787 -0.0038724556 0.06402072 0.06401561
0.03474938 0.12721147 0.0321885 0.5369089 -0.50404584 -0.32864955 -0.3616656 -1.8495861
0.13760792 0.056442074 0.0421688 0.123259045 0.15019013 -0.041744445 0.12528123 -0.01411172
0.26485935 0.24674524 0.07685428 0.24545783 0.10242229 0.29921153 -0.055058796 -0.13333802
-0.06335479 -0.0565277 0.102300264 0.16477287 -0.10473641 0.083553344 -0.012692338 -0.06287028
00000000: 6a57 6d3d 9ec9 81be eb8d 9a3d 243d 5c3d
00000010: 2966 a23e 9260 60be 0606 7b3d 66d4 8d3e
00000020: 6f9e c73e aa62 1b3f 4b28 0c3d 2d14 833d
00000030: df12 0d3e 9971 283d 7204 46be 9471 bd3d
00000040: e796 2cbe 1de7 6ebc c7a8 65bd 15c7 7dbe
00000050: abad d0bd c5ec 97bd f390 a43d 7ab0 b3bd
00000060: c043 81bd 641c 3dbd 14e4 0cbf 1866 a9bd
00000070: 9adf 543e 3ced 263f bcfc 56be 903f 8c3d
00000080: b360 8bbe d237 8ebd d5d6 2bbe 5393 42bd
00000090: f1ee 053d 9da1 bebe 823e 073e 9e7c 31bd
000000a0: ea81 3ebe bd8f 10be f750 b8bc d278 af3d
000000b0: e698 ff3d ea07 40bd 295f aebe 9630 c7bd
000000c0: 0887 cebd 5125 2fbe 6816 f4bc 7dd5 09bd
000000d0: ea45 fabe 2e9e 583e a2f9 063d 2930 23bd
000000e0: 6343 96be c5ec f23d 9f16 95bd abd3 5f3e
000000f0: 2b6f 983d c983 febd f884 f9be 436b 1c3d
00000100: d375 bf3e 503c 873d fc89 0cbf 9f2b 34bd
00000110: 6e4d 813e 6b4c 293e d795 063e 30bb d3be
00000120: 91fd 02be 5b4e 533d ccd2 8e3e e7c6 353d
00000130: 2e94 763e ca72 ab3c 75bd cc3d 5750 9a3e
00000140: 1491 633e 4608 373d f44b 6e3d 074c 9dbe
00000150: 9cf8 413e 3c51 213e c8c2 b53d 5b5f 713d
00000160: 8521 a3bc c4f4 8e3e cc57 863e 33e6 653e
00000170: b378 2ebd 40d9 5b3d a483 e33d c8ea 533e
00000180: 7d75 1a3e 1885 853d 573b 0c3e f7f4 6f3e
00000190: 8a91 2c3e 62c2 483e ab6d 623e 271e c2bd
000001a0: bb51 fc3e c5c8 bc3d c964 8dbc 8cfc eabd
000001b0: bb77 66bf 0c6a 07bb b164 cfbb 82b1 743d
000001c0: 94f8 873e bcf8 34b8 3f8f 163e 3743 92bd
000001d0: 8063 4f3c f239 2ab9 fea1 26be 98c2 923d
000001e0: ed14 ebbe 6df6 583c 4ce6 553d a030 ac3c
000001f0: a913 f03d fba8 043e 31e8 003f 6171 55bf
00000200: e688 e8bd eb3b 333d 88bc b8bf f005 c33b
00000210: 6e68 e73d eab0 bc3d e7b3 5bbd 4f02 ac3d
00000220: f95a 69be dac0 d2bd cf7a f23d 2e6d 853e
00000230: 7015 173f 0c1d 063e 4ba0 c23d 0973 bb3e
00000240: 6b51 883e 3844 d03d ef0a f23c 584f 34bb
00000250: 6aa1 0ebe 4b89 ba3d afd7 3dbe 35b7 96bd
00000260: c688 5e3d fe15 e73e 5e7a b5be bd6a 25bf
00000270: 3e93 cebe ed2a a8bf d7e5 123d b267 423e
00000280: 08a0 4cbc d1d4 80bd c7f6 f73d 3cb6 f0bd
00000290: 1464 84be 144f b6bd 0b98 0cbe 160e b83c
000002a0: 5b0b 803d 41d1 cebd 3c47 b83d af36 4dbe
000002b0: e7c5 643d 204a 26be 4a30 373e 2482 1b3e
000002c0: 1ed5 37bd 7f72 9dbe 4845 b2bd fba5 403e
000002d0: 9f79 843d cee3 f53c 084b e9be c4db 94bc
000002e0: 978c 4b3d beee 1f3e cfec 7f3e 3b0a 9c3e
000002f0: 9d4a 133e 6a70 19be 5c05 113f 3f3e 31bf
00000300: faa3 38bf 7a63 f8be 600f 11c0 5dea 89bd
00000310: ce7c 6f3d d353 9f3d e979 b83d 07ce 98bd
00000320: 3f89 ca3d 3207 6f3e aaa8 a63e 66ab cf3b
00000330: 188f eebd b9f3 383d 1e7d 793e 1150 e53d
00000340: 0a01 0c3e 95b1 cb3d a21a f5bd c1ff 223e
00000350: 2c97 1bbd 6293 cebc aa95 93bd cdd4 05bd
00000360: 9347 203e d9af 2e3e d553 c33d a822 05be
00000370: 1722 a43c 06c9 7dbb 4c1d 833d 9e1a 833d
00000380: 5e55 0e3d b943 023e 17d8 033d dd72 093f
00000390: 2609 01bf c144 a8be 3c2c b9be 3dbf ecbf
000003a0: 17e9 0c3e ce2f 673d 31b9 2c3d 3d6f fc3d
000003b0: 71cb 193e 39fc 2abd b949 003e d834 67bc
000003c0: a59b 873e c9aa 7c3e c765 9d3d 4c59 7b3e
000003d0: c7c2 d13d 4132 993e 5585 61bd c389 08be
000003e0: 28c0 81bd 9789 67bd cd82 d13d 38ba 283e
000003f0: 0b80 d6bd 041e ab3d 86f3 4fbc 22c2 80bd

bias f4 [64]
-0.043904763 0.12197797 0.18387529 0.04395607 0.021196824 0.11837401 0.071488574 0.048012055
0.008725304 0.029593054 -0.028193701 0.056949973 0.07833628 -0.016942646 -0.038812373 0.051285397
0.0014273418 0.06503227 0.035879996 0.0063956026 0.007415981 -0.09458094 0.06824031 0.060903095
-0.08560695 -0.058662992 -0.050374433 0.04953926 -0.009464183 -0.018926196 -0.12650932 0.04991804
0.10110194 0.05674536 -0.028579257 0.007357832 0.008010384 -0.0124490075 -0.0679528 -0.019526342
-0.0688781 0.07766615 0.09131052 0.08327401 -0.011475586 0.011836235 -0.03946216 -0.079063855
0.17836513 0.026982903 0.005432159 -0.014341824 0.070249334 0.040682893 -0.030332126 0.05106846
0.04196973 0.060639363 -0.033342123 -0.09780293 0.14567587 0.073992155 -0.036719684 0.077000245
00000000: 7bd5 33bd 96cf f93d ce49 3c3e 480b 343d
00000010: f6a4 ad3c 136e f23d 9a68 923d 4aa8 443d
00000020: 94f4 0e3c 226d f23c 7af6 e6bc 6044 693d
00000030: c66e a03d 4ecb 8abc b9f9 1ebd a310 523d
00000040: a515 bb3a a42f 853d e7f6 123d 3492 d13b
00000050: c201 f33b a7b3 c1bd 93c1 8b3d 8675 793d
00000060: b252 afbd 9b48 70bd 6c55 4ebd aee9 4a3d
00000070: a90f 1bbc 1c0b 9bbc a98b 01be dc76 4c3d
00000080: 890e cf3d d36d 683d 0c1f eabc f819 f13b
00000090: fc3d 033c ecf6 4bbc d62a 8bbd b5f5 9fbc
000000a0: f60f 8dbd 6e0f 9f3d 0301 bb3d 908b aa3d
000000b0: 1904 3cbc c5ec 413c 13a3 21bd 3bec a1bd
000000c0: 59a5 363e 400b dd3c 4100 b23b f8f9 6abc
000000d0: e2de 8f3d 1ba3 263d 147b f8bc 292d 513d
000000e0: 74e8 2b3d fb60 783d c091 08bd e74c c8bd
000000f0: 0e2c 153e 3389 973d 6167 16bd 4eb2 9d3d

weight f4 [64, 64]
-0.14817785 0.16336381 0.03562813 0.091465205 0.12274867 0.16605614 0.21360001 -0.080127425
-0.04852319 -0.47042227 -0.08284688 -0.16317217 -0.42805856 0.117945656 -0.22430411 -0.24102965
-0.02145839 0.11793613 -0.105700545 0.1225782 0.03970497 -0.2079511 -0.036526203 -0.1999098
-0.25397274 0.18596719 0.19826883 -0.012632888 -0.1547859 0.13247605 -0.23297766 0.15158828
-0.21728557 -0.07381362 -0.19449085 0.003686275 -0.37537706 0.029498752 -0.16361445 -0.11955998
-0.08490497 0.012987455 0.16681269 -0.1847306 0.15832333 -0.06633075 -0.110982314 -0.19568814
-0.3122842 -0.074128285 -0.1788325 0.08217015 0.0028541104 0.20450383 -0.24061641 -0.17207871
0.13907808 0.3193164 -0.01052616 0.15747178 -0.09784029 -0.09058478 -0.09199008 0.26295862
0.3991523 -0.2696635 -0.05016131 -0.15356003 0.013694373 0.08659074 -0.2231417 -0.019034207
-0.37302586 0.00069379795 0.15484436 -0.017524622 0.21806188 -0.24756618 -0.336949 0.17269091
-0.035179816 0.16920958 -0.27550772 -0.06061391 -0.0717942 -0.06531084 -0.1060169 0.13984579
-0.023309682 -0.32531607 -0.11075348 0.25669643 -0.6311213 -0.03248146 -0.23201865 0.14403038
0.14937295 0.090684496 -0.23515294 -0.23187855 0.10425277 -0.3978069 -0.2849145 -0.16246131
-0.07004987 -0.32198694 -0.37593287 -0.03491078 -0.28177243 -0.15357913 -0.004251027 0.0043460974
0.20959888 -0.23984298 0.06244523 -0.070989124 -0.22436465 -0.08007357 -0.03863575 0.01311462
0.10499053 0.3166239 0.14356649 -0.062474508 -0.19521217 -0.25001904 -0.33083332 0.0055319746
-0.16340774 -0.18943152 0.04900955 -0.39865136 0.038980253 -0.043592844 0.044207584 -0.10732398
0.0077009886 -0.16064046 -0.074608654 -0.22009213 0.01821485 -0.14413817 -0.064055726 -0.109256506
0.049861275 0.3082433 0.008466386 -0.053276394 -0.0117377285 0.025012476 -0.26051003 0.24860786
-0.0984159 0.24407709 -0.02806163 -0.004087867 0.056522924 -0.31748655 0.31991988 -0.1412504
-0.22509679 -0.36588243 0.1546946 -0.018054258 -0.05206245 -0.07060851 0.024395728 0.17059939
0.15466294 0.07339138 -0.07363093 0.04887762 -0.1778819 -0.28696033 0.018493362 -0.3666236
0.18692288 -0.0425067 -0.4226876 -0.37131163 -0.033457194 0.047974177 0.059386637 -0.20605603
-0.33859086 0.73596394 0.2983712 0.0052109933 0.06284926 0.002012185 -0.049311634 -0.38976595
-0.047846302 -0.16961077 0.036899157 -0.16431862 -0.03213225 -0.5460296 -0.13760263 0.20182309
-0.20932353 -0.00031414433 -0.21648982 0.03859167 0.000540487 -0.71277475 -0.0005751502 0.26096088
-0.21912548 0.14335375 0.22212994 -0.1872624 -0.08930597 0.06413646 0.09331581 0.057611074
-0.13997433 0.19136253 -0.0708014 -0.20121504 0.029232115 0.23325722 0.31264597 0.19824569
-0.21576568 -0.1697876 0.037410554 -0.0021839954 -0.36027578 0.049199853 -0.18282175 -0.12344106
-0.27614096 -8.659177e-05 -0.095148034 -0.1489798 0.07678299 0.26096606 0.014547936 -0.3292662
-0.13786928 0.23663273 0.23157118 -0.011516585 0.22297451 -0.14940839 -0.11029961 0.06896984
-0.12026938 -0.03126124 0.13024351 -0.15239441 -0.031633563 -0.23634014 -0.1821866 -0.29335535
00000000: efbb 17be d848 273e cdee 113d 1c52 bb3d
00000010: a863 fb3d 9f0a 2a3e f6b9 5a3e d919 a4bd
00000020: 41c0 46bd 30db f0be a0ab a9bd 9b16 27be
00000030: 7e2a dbbe 7e8d f13d faaf 65be 7ad0 76be
00000040: 81c9 afbc 7f88 f13d 8779 d8bd 480a fb3d
00000050: aea1 223d 22f1 54be 809c 15bd 28b5 4cbe
00000060: b708 82be 2f6e 3e3e fc06 4b3e 2cfa 4ebc
00000070: 3280 1ebe cda7 073e b291 6ebe f539 1b3e
00000080: 1c80 5ebe 982b 97bd 9c28 47be 6f95 713b
00000090: 6c31 c0be 5ea7 f13c 8c8a 27be dddb f4bd
000000a0: a8e2 adbd 56c9 543c f2d0 2a3e 052a 3dbe
000000b0: 831f 223e 6bd8 87bd b24a e3bd 7962 48be
000000c0: b7e3 9fbe 92d0 97bd de1f 37be d348 a83d
000000d0: 070c 3b3b 7469 513e 2664 76be 6735 30be
000000e0: 7c6a 0e3e 707d a33e ea75 2cbc 4840 213e
000000f0: 7d60 c8bd 8384 b9bd 4c65 bcbd 83a2 863e
00000100: b15d cc3e 5611 8abe f275 4dbd d73e 1dbe
00000110: 5d5e 603c 7c56 b13d 427f 64be a0ed 9bbc
00000120: 3ffd bebe fedf 353a 858f 1e3e cc8f 8fbc
00000130: 9d4b 5f3e fd81 7dbe 9484 acbe e3d5 303e
00000140: b618 10bd 4745 2d3e 590f 8dbe 4b46 78bd
00000150: d608 93bd b1c1 85bd 631f d9bd bc33 0f3e
00000160: f2f3 bebc d48f a6be b8d2 e2bd b76d 833e
00000170: 2a91 21bf 480b 05bd 4c96 6dbe b37c 133e
00000180: 39f5 183e cbb8 b93d efcb 70be 9271 6dbe
00000190: 7a82 d53d 59ad cbbe 50e0 91be 425c 26be
000001a0: 4e76 8fbd 79db a4be 467a c0be 9bfe 0ebd
000001b0: 7a44 90be d943 1dbe 334c 8bbb b569 8e3b
000001c0: 17a1 563e 6699 75be 92c6 7f3d bf62 91bd
000001d0: d9bf 65be 9dfd a3bd 8540 1ebd b4de 563c
000001e0: 4605 d73d 871c a23e 1803 133e 45e5 7fbd
000001f0: b3e5 47be 7f02 80be fc62 a9be 9145 b53b
00000200: 5c54 27be 56fa 41be 3dbe 483d 081c ccbe
00000210: c2a9 1f3d 698e 32bd 0313 353d adcc dbbd
00000220: 9358 fc3b ef7e 24be 6ccc 98bd d55f 61be
00000230: 4f37 953c f598 13be a62f 83bd e0c1 dfbd
00000240: 563b 4c3d 11d2 9d3e 99b6 0a3c 5938 5abd
00000250: 9a4f 40bc f7e6 cc3c 9261 85be 0f93 7e3e
00000260: 468e c9bd 58ef 793e 81e1 e5bc 84f3 85bb
00000270: 9584 673d 998d a2be 8acc a33e f2a3 10be
00000280: c67f 66be f154 bbbe 4368 1e3e 86e6 93bc
00000290: 703f 55bd 329b 90bd 8dd9 c73c 9bb1 2e3e
000002a0: f65f 1e3e 384e 963d d0cb 96bd e633 483d
000002b0: ac26 36be 77ec 92be 647f 973c 17b6 bbbe
000002c0: b668 3f3e 811b 2ebd 826a d8be 8f1c bebe
000002d0: 690a 09bd 9280 443d 673f 733d 5a00 53be
000002e0: c85b adbe 2268 3c3f 1cc4 983e fbc0 aa3b
000002f0: 1db7 803d ddde 033b fffa 49bd 678f c7be
00000300: 7cfa 43bd 72ae 2dbe 9223 173d 2443 28be
00000310: 1b9d 03bd 99c8 0bbf b4e7 0cbe b6aa 4e3e
00000320: e858 56be bdb3 a4b9 82af 5dbe 4d12 1e3d
00000330: 78af 0d3a 6878 36bf adc5 16ba aa9c 853e
00000340: 6e62 60be 53cb 123e 0876 633e b7c1 3fbe
00000350: 0ce6 b6bd fa59 833d 5c1c bf3d 97f9 6b3d
00000360: 6e55 0fbe 8af4 433e 5300 91bd 510b 4ebe
00000370: 3078 ef3c fbda 6e3e 2213 a03e eb00 4b3e
00000380: aef1 5cbe cddc 2dbe cf3b 193d 5d21 0fbb
00000390: 1176 b8be c985 493d a035 3bbe abce fcbd
000003a0: 5962 8dbe 9a98 b5b8 f9dc c2bd 298e 18be
000003b0: 6640 9d3d 589d 853e 775a 6e3c 9495 a8be
000003c0: 9b2d 0dbe da4f 723e ff20 6d3e 0fb0 3cbc
000003d0: 6e53 643e 83fe 18be c3e4 e1bd 0f40 8d3d
000003e0: cb4f f6bd c90b 00bd 8e5e 053e 480d 1cbe
000003f0: 3292 01bd 2603 72be 208f 3abe ac32 96be

bias f4 [64]
-0.043551803 0.043764517 -0.014357965 -0.007831281 0.029658653 0.004578457 0.069664516 0.09219631
-0.0456706 0.0064390386 -0.048322696 -0.016531419 -0.010016627 0.026007112 -0.019312305 0.07129626
-0.06064569 0.002963179 -0.021546597 0.062090203 0.038938317 -0.04908905 0.0013142977 0.023134908
0.083015926 0.023633147 -0.013735746 -0.012211115 -0.026967863 -0.028235385 0.1040157 0.048068814
-0.04488261 -0.020874755 0.0089155305 0.22609155 0.015050645 -0.18810223 -0.009128257 -0.04995926
-0.06776256 0.058154155 0.10486927 0.086889915 -0.03017955 -0.022444308 0.0016471745 0.023228096
-0.04963615 -0.081262566 -0.11290349 -0.02748629 0.01773883 0.39579824 0.020271802 -0.031843815
0.047993977 0.052287035 0.026796617 0.013343025 -0.13756822 0.07194063 0.111849785 -0.036989518
00000000: 6063 32bd 6c42 333d ac3d 6bbc c64e 00bc
00000010: b4f6 f23c e206 963b 45ac 8e3d 6bd1 bc3d
00000020: 1811 3bbd 92fe d23b 05ee 45bd e66c 87bc
00000030: c71c 24bc de0c d53c d734 9ebc c603 923d
00000040: 9d67 78bd e531 423b 7d82 b0bc 4c52 7e3d
00000050: c97d 1f3d 9a11 49bd 8344 ac3a 6b85 bd3c
00000060: 4104 aa3d 4d9a c13c e50b 61bc 2111 48bc
00000070: b5eb dcbc e54d e7bc 2f06 d53d cee3 443d
00000080: d4d6 37bd 8901 abbc 7212 123c 8b84 673e
00000090: fb96 763c df9d 40be af8e 15bc 15a2 4cbd
000000a0: 19c7 8abd 0d33 6e3d b3c5 d63d 57f3 b13d
000000b0: 1b3b f7bc 20dd b7bc 01e6 d73a d948 be3c
000000c0: 474f 4bbd fd6c a6bd f239 e7bd ee2a e1bc
000000d0: 0651 913c 11a6 ca3e 0d11 a63c a96e 02bd
000000e0: 5595 443d ee2a 563d 9484 db3c b49c 5a3c
000000f0: afde 0cbe 9c55 933d 8011 e53d 5282 17bd

weight f4 [4, 64]
0.04233473 -0.043512695 0.097890206 0.10808866 0.2528123 0.12201104 0.032084778 0.04771883
-0.046989422 0.16337585 0.31948778 -0.033403065 0.35889152 -0.1349918 0.12296932 0.033093624
0.034834903 0.11672333 0.39234605 0.04833673 0.0063811513 0.03663298 0.068926886 0.39986572
0.008669005 0.106472775 0.07370278 0.31721663 -0.0664567 0.029443989 0.1913265 0.083326705
0.14627662 -0.30562595 0.06641649 0.11792871 -0.09601363 -0.107862286 -0.08349169 0.07873235
-0.081162274 0.07711657 0.065527 0.18998882 -0.009393525 -0.07253667 0.2221638 -0.097654365
-0.11069751 -0.124527626 -0.07945286 0.040478807 0.017443307 0.15738039 -0.052069075 0.001496077
0.09230255 0.017623147 -0.18182258 -0.06931255 0.16071148 0.07730016 0.048665877 -0.066112615
-0.056411542 0.040419526 0.15264115 0.013858252 0.2049769 0.10348797 0.026900794 0.045401968
-0.1186277 0.0070638806 0.28168508 -0.0032399602 0.27860475 0.0504704 -0.065251626 0.043140795
-0.029585144 0.1283909 0.27981886 -0.17829001 0.001285086 0.059112195 0.14448732 0.26804236
0.057092633 0.038021315 0.004742458 0.20466207 0.082444556 -0.07391292 0.17166218 0.089232124
0.1904723 0.04128034 0.074959666 0.14062554 -0.091658585 -0.05279617 0.053741146 0.007251129
-0.052144136 0.025773052 0.06479278 0.14478672 -0.019533612 -0.093614526 0.124879576 -0.076017976
-0.051937446 -0.081439525 -0.06443096 0.06626977 0.06314208 0.15271659 0.070827276 0.040111758
0.19881316 0.05178148 -0.038872037 0.19805455 0.2742893 0.107736506 0.03662405 -0.052991677
-0.22439954 0.001907118 0.07897483 -0.35969338 0.06371393 -0.035568383 0.07311288 0.108807035
0.22889213 -0.07600207 0.411897 0.10715232 0.061093688 -0.22997409 0.21668461 0.18860212
-0.28327793 0.22418512 0.28579956 -0.25931302 0.11763271 0.18691333 0.28138193 0.29929468
-0.038898904 0.10686854 -0.16008073 0.2586216 0.0634268 0.032414194 0.0049397047 0.09670899
0.17126396 -0.14230983 0.11987752 0.102790445 -0.0037346722 -0.09753327 0.14414328 -0.44080126
0.120981984 0.065607704 0.09910486 0.06603627 0.108237505 -0.088140175 0.07376999 -0.09077614
-0.1033857 -0.031782895 -0.07289768 0.06481815 0.07885932 0.1658829 0.13933915 -0.11043088
0.06039907 0.07878348 0.17996989 0.1358947 0.41747493 0.10623969 -0.007085456 -0.1394179
-0.071409166 -0.28379208 0.2665468 0.33094528 0.15814272 0.020399345 0.09122205 0.1087966
0.094765544 0.19029155 0.030409645 -0.04554041 0.5133428 0.17757137 0.005874874 0.09059657
0.03640939 0.04913629 0.0687884 -0.009459715 0.058840785 -0.01625993 0.093892194 0.3127695
-0.0046299975 0.13382435 0.16771808 0.2665842 0.09924964 0.085081786 0.019699719 0.10707594
0.124424726 -0.10322078 0.01266489 0.11458156 0.036004025 -0.00334769 -0.04777798 0.12876023
0.0072111376 0.054739453 0.088487834 0.069100715 0.2515605 -0.15991008 0.18209812 0.045602772
-0.12129923 -0.092654265 -0.058682602 0.17285559 -0.16615517 0.16073792 0.18178464 0.22936194
0.25714985 0.06523015 0.08123777 -0.10605069 0.06304162 0.074737675 0.02774071 -0.2077897
00000000: 2f67 2d3d 5e3a 32bd a97a c83d 965d dd3d
00000010: 9d70 813e ede0 f93d 546b 033d d274 433d
00000020: fb77 40bd 004c 273e e793 a33e a7d1 08bd
00000030: a1c0 b73e 4a3b 0abe 57d7 fb3d 2e8d 073d
00000040: 0baf 0e3d a40c ef3d 95e1 c83e bcfc 453d
00000050: fa18 d13b 770c 163d 8a29 8d3d 33bb cc3e
00000060: 7108 0e3c 660e da3d 7cf1 963d 386a a23e
00000070: 731a 88bd 8534 f13c 18eb 433e 31a7 aa3d
00000080: 8ac9 153e 017b 9cbe 5e05 883d 9c84 f13d
00000090: cba2 c4bd e7e6 dcbd b1fd aabd 6d3e a13d
000000a0: 6838 a6bd 4bef 9d3d 0533 863d 6e8c 423e
000000b0: 4de7 19bc 1b8e 94bd e87e 633e 03ff c7bd
000000c0: 60b5 e2bd 5708 ffbd 2eb8 a2bd 1bcd 253d
000000d0: 44e5 8e3c 5328 213e 6246 55bd 0418 c43a
000000e0: 1f09 bd3d 6b5e 903c b32f 3abe bdf3 8dbd
000000f0: 8d91 243e 8c4f 9e3d df55 473d 0d66 87bd
00000100: ca0f 67bd f28e 253d f64d 1c3e b90d 633c
00000110: 77e5 513e 80f1 d33d 0e5f dc3c 6af7 393d
00000120: 14f3 f2bd 2078 e73b 0739 903e 8355 54bb
00000130: 48a5 8e3e 0dba 4e3d a5a2 85bd 67b4 303d
00000140: 8b5c f2bc e778 033e 6b44 8f3e a891 36be
00000150: 5570 a83a a11f 723d 7cf4 133e d93c 893e
00000160: f7d9 693d 3dbc 1b3d 9f66 9b3b ef92 513e
00000170: b1d8 a83d a85f 97bd 36c8 2f3e 55bf b63d
00000180: 2c0b 433e 9315 293d 7484 993d 2400 103e
00000190: 7fb7 bbbd cc40 58bd ad1f 5c3d e19a ed3b
000001a0: 1795 55bd 0222 d33c 14b2 843d f842 143e
000001b0: f404 a0bc f9b8 bfbd ddc0 ff3d 50af 9bbd
000001c0: 5cbc 54bd c4c9 a6bd 61f4 83bd 72b8 873d
000001d0: a350 813d bd61 1c3e e40d 913d 3a4c 243d
000001e0: ad95 4b3e d118 543d 4938 1fbd d0ce 4a3e
000001f0: a66f 8c3e f5a4 dc3d 1a03 163d cd0d 59bd
00000200: fec8 65be 43f8 f93a 8ebd a13d bb29 b8be
00000210: 737c 823d 27b0 11bd 35bc 953d 39d6 de3d
00000220: b362 6a3e f9a6 9bbd 2ae4 d23e ad72 db3d
00000230: 603d 7a3d 547e 6bbe 92e2 5d3e ea20 413e
00000240: ce09 91be c990 653e 5254 923e adc4 84be
00000250: 6be9 f03d 3566 3f3e 4b11 903e 273d 993e
00000260: 7554 1fbd e5dd da3d 34ec 23be 0d6a 843e
00000270: e9e5 813d bfc4 043d 3fdd a13b 5d0f c63d
00000280: d25f 2f3e abb9 11be 5882 f53d cc83 d23d
00000290: 67c1 74bb 86bf c7bd 4c9a 133e b4b0 e1be
000002a0: 67c5 f73d 555d 863d 7df7 ca3d 063e 873d
000002b0: a0ab dd3d d682 b4bd b814 973d d7e8 b9bd
000002c0: e2bb d3bd c82e 02bd 614b 95bd 61bf 843d
000002d0: ff80 a13d 35dd 293e ecae 0e3e 9629 e2bd
000002e0: 0465 773d 3c59 a13d 074a 383e fb27 0b3e
000002f0: 46bf d53e 3294 d93d 1d2d e8bb 91c3 0ebe
00000300: f83e 92bd 324d 91be d278 883e a971 a93e
00000310: 2af0 213e 871c a73c a0d2 ba3d c0d0 de3d
00000320: 7014 c23d cadb 423e a61d f93c 9588 3abd
00000330: 6f6a 033f 45d5 353e 0482 c03b b28a b93d
00000340: 0322 153d 2243 493d efe0 8c3d ecfc 1abc
00000350: 0903 713d 8b33 85bc 8d4a c03d 5323 a03e
00000360: 3cb7 97bb 4009 093e 4abe 2b3e b97d 883e
00000370: 6543 cb3d 5c3f ae3d 4e61 a13c a14a db3d
00000380: 64d2 fe3d 6b65 d3bd 6680 4f3c bda9 ea3d
00000390: f578 133d eb64 5bbb d8b2 43bd b9d9 033e
000003a0: 684b ec3b 7a36 603d 1c39 b53d ad84 8d3d
000003b0: 8acc 803e 78bf 23be ee77 3a3e f9c9 3a3d
000003c0: bb6b f8bd 85c1 bdbd 2b5d 70bd 0e01 313e
000003d0: 9524 2abe 7b98 243e c125 3a3e dbdd 6a3e
000003e0: 25a9 833e 6397 853d fd5f a63d 1b31 d9bd
000003f0: f71b 813d 1110 993d 7c40 e33c d3c6 54be

bias f4 [4]
0.30075338 0.23741098 0.25481457 0.27391607
00000000: 59fc 993e dd1b 733e 0e77 823e ba3e 8c3e
