results/dqn_checkpoint_seed1.pt (torch_old, 35858 bytes, 6 tensors)

weight f4 [64, 37]
00000000: 9d7c d1bc 8fd8 0c3d bcc1 0b3d 0ed1 2bbd
00000010: 6795 013e 8947 433e 1660 de3c 1ff6 8abc
00000020: 90ca 293d 9b4a edbd 0857 e13b e240 17be
00000030: 219c 9ebc f67a 0bbe daa9 673d f63b 0f3e
00000040: a910 32bc 10ae d6bd e99d 1dbb 2a9b 05bf
00000050: 51c0 5fbe 341c 863d ce40 87bd 6f7c a8bd
00000060: 31cd 63bc 266c 883d d33f f2bc 7278 fcbd
00000070: 24a9 793d 01f3 bcbe 8483 0bbe 518f a53d
00000080: 1b34 303e 5c81 a33d aacd 413d cddc bb3d
00000090: 5002 1c3e 3c41 613d e93e 68bc f86d 9bbd
000000a0: 4762 cfbc 6c7e fcbb c68a 73be 739d cbbc
000000b0: b337 60bd e1e0 103d 87f6 743e 4348 193d
000000c0: 1862 963d 88b5 cd3d 92f8 443e ee15 053e
000000d0: b81b 14be 4977 95bd 4679 3b3e 89ee fb3d
000000e0: 5819 a73e ec84 f83e e99b 12bf dc19 23be
000000f0: 0954 f8be 19e4 cdbf 4a3a 79bd 4fc0 45bd
00000100: 61ce 063e 728b 633e 4d3a 933d 19c6 be3d
00000110: 5973 93bd 7513 353b f20e f83d 5fd5 393e
00000120: 159f 363d 14b9 62bc 5fb0 b3be 71f8 353c
00000130: dae3 f53c dca7 723d 1f57 7e3e 8af2 9abd
00000140: 1b00 de3d 8893 f53e 26ab 903e d090 a63c
00000150: fc23 efbd 61ff ba3c 802d f3bb 1398 86bd
00000160: 445a 20be 77c8 4d3c 8d3b 39bc eab5 d9bc
00000170: 0280 093d d7d1 88be ade6 ffbd 70d6 87bd
00000180: bf1a 633e 6fe7 b43d 00fc 5dbe 8f34 dbbd
00000190: ea07 3b3d 0e6f 813d ce2a 81be 4555 97be
000001a0: 6ae4 563e 387c f4bb 8bb7 633d e5a1 61be
000001b0: 64e7 b9bf fbe8 f73d 5ef7 6f3d b2c5 64bb
000001c0: 00b0 423d cc2c eebc 191b 273b e484 91bd
000001d0: 1755 18be 1f59 acbd 300f 38bd ee0c 5a3d
000001e0: 8da4 3b3e 6e49 703e ff09 6b3e b313 a23e
000001f0: bfc6 853e 21ee f63d d922 193f 0394 69bf
00000200: 838b 0ebf 9365 91be a740 06c0 b0e4 0ebe
00000210: 692e 4a3d 9bbf 963d 8cc1 c63d e954 8f3e
00000220: ecf6 913d aa68 b53c 714e 8ebd 882e 81be
00000230: 8ebd 97be 5d78 11be cc74 7abc e03c a83c
00000240: 2e29 5e3d c125 113e e789 983c 8ba0 0fbb
00000250: 5101 f53d 5c5a abbd 2177 6dbe 137e 0abe
00000260: 1e5d 3bbe eddd ac3c 411c 84be 6f32 f3bd
00000270: 89cb ad3e 7970 1b3e 8251 363d 0ae8 79bd
00000280: 81ee a1bd 4baf 94be dd30 043e ab73 ea3d
00000290: 80bb 12bd 48b8 e93b 1f9b d73d d369 133e
000002a0: 65d9 1f3e a8ce d6be c4aa 81bc a3eb 1a3e
000002b0: 912d fcbe 6f45 41be 834b 9f3d 6bd3 593d
000002c0: cba6 92be 61ed 923e b928 17be 8579 23be
000002d0: 237e 27bd e977 143d 15ba 0c3e 962d 41be
000002e0: bdf4 c2bd f4d3 463e 7e35 ae3c a226 a43c
000002f0: f361 17be ed3a 44be 338d 50be b4fb 06be
00000300: c782 2c3e 279d c7bb beec 243e 7242 df3d
00000310: ee02 7a3d bcd9 31bd a23b 0d3e ed93 cd3e
00000320: f0b9 31be 6abb 9dbc abcd f63d 4664 63be
00000330: eb84 dfbe b5aa 75be f14f 793b 891e 63be
00000340: 6201 33be d822 b33e 9471 4fbd 53f9 04bd
00000350: d842 e63d 6155 963e 8971 cc3e cfd4 1abd
00000360: 5f98 c9bd 7f58 a4bd 4b10 b33e 323e 713e
00000370: 5329 2fbd ca8f 0bbd 82ce ff3d f10d 543e
00000380: f84f 203d e8af 333e cdc3 dc3d 5ac4 193d
00000390: e497 ffbd d9ba 0e3d d86f 7f3e a43b 4b3f
000003a0: aff6 b63d 167f ee3d dbca a93d 6275 c43c
000003b0: 9a25 383e a009 863c 8086 2dbd c433 afbc
000003c0: 839d cd3d 1337 993c 3fe1 1fbe e4bd b43d
000003d0: 5c2e 063e f7fd 733e db9b 4f3f 9cf0 3d3e
000003e0: 7c61 923c 7f17 be3d b14a e03e ca92 053f
000003f0: 4c1f ca3e 9bbd 473d f424 7ebe 58ee f4be
-0.025572116 0.034386214 0.034120306 -0.041947417 0.12654649 0.19070257 0.027145427 -0.016963063
0.041452944 -0.115864955 0.00687683 -0.14770845 -0.019361557 -0.13621125 0.056558467 0.13987717
-0.01086823 -0.104824185 -0.002405042 -0.52189887 -0.21850707 0.06548348 -0.066041574 -0.08226859
-0.013903902 0.06661253 -0.02957145 -0.123276606 0.06095232 -0.36904147 -0.13624388 0.08083976
0.17207377 0.07983658 0.047315277 0.09172974 0.15235257 0.054993853 -0.014175155 -0.07589334
-0.025315417 -0.0077055003 -0.23783407 -0.024855351 -0.05474062 0.03537071 0.23922168 0.03742243
0.07342929 0.1004439 0.19235447 0.12996647 -0.14463699 -0.072981425 0.18307981 0.12301356
0.32636523 0.4853891 -0.5726915 -0.15927833 -0.48501614 -1.6085235 -0.060846604 -0.048279103
0.13164665 0.22221163 0.07188854 0.09315128 -0.07199735 0.0027630005 0.121122256 0.18147801
0.044585306 -0.013838071 -0.35095498 0.011106596 0.030015875 0.059242114 0.24837922 -0.07565792
0.10839864 0.4796412 0.28255576 0.020332724 -0.11676785 0.022826852 -0.0074211955 -0.065719746
-0.15659434 0.012560002 -0.011305702 -0.026576001 0.033569343 -0.26722595 -0.1249517 -0.066326976
0.22178172 0.08833205 -0.21678162 -0.10703384 0.045661844 0.0632001 -0.2522797 -0.29557243
0.2098557 -0.007461097 0.055594962 -0.22034414 -1.452374 0.121049844 0.058585517 -0.0034907875
0.047531128 -0.029074095 0.002549833 -0.07105425 -0.14876209 -0.08415436 -0.04493636 0.053234987
0.1832449 0.23465511 0.22953032 0.31655654 0.26128194 0.12057138 0.598188 -0.9124147
-0.5568163 -0.28397807 -2.097696 -0.13954425 0.049360666 0.073607646 0.09704885 0.2799447
0.07127175 0.022144634 -0.06948555 -0.25230813 -0.29636806 -0.14206071 -0.015286636 0.02053684
0.05423849 0.14174558 0.018620444 -0.002191576 0.11963142 -0.08366844 -0.23189975 -0.13524656
-0.1829724 0.021101916 -0.25802806 -0.11874854 0.33944348 0.15179624 0.044511326 -0.061012305
-0.07906819 -0.29039988 0.12909265 0.11447843 -0.035823345 0.0071325637 0.10527634 0.14395837
0.15610273 -0.4195454 -0.015828498 0.15128951 -0.49253514 -0.18874143 0.077780746 0.05318014
-0.28642878 0.2869673 -0.14761628 -0.15964325 -0.040891778 0.036247168 0.1374286 -0.18865046
-0.095193364 0.19416791 0.021265741 0.020037953 -0.14783458 -0.19163103 -0.20366363 -0.13181955
0.16846763 -0.006091732 0.16105935 0.10901345 0.06103795 -0.04342054 0.1379228 0.4015192
-0.17356086 -0.019254405 0.12050947 -0.2220622 -0.43656096 -0.23990901 0.0038042034 -0.22179617
-0.17480996 0.3498752 -0.050645426 -0.032464337 0.11243218 0.29362014 0.3993037 -0.037800606
-0.098435156 -0.08024692 0.34973368 0.23558882 -0.04276402 -0.034072675 0.1249056 0.20708443
0.039138764 0.17547572 0.107795335 0.03754077 -0.12480143 0.03484616 0.24945009 0.7938788
0.0893377 0.116453335 0.08290645 0.023981754 0.17983094 0.016362011 -0.042364597 -0.021386988
0.100398086 0.01870302 -0.15613268 0.08825281 0.13103622 0.23827349 0.8109719 0.18548816
0.01786875 0.09281825 0.43806985 0.5217711 0.39477003 0.048764806 -0.24818784 -0.47838092

bias f4 [64]
00000000: 8cd7 803c 9859 563d f496 debc 6b21 003d
00000010: d6c8 cfbc defd 24bd 25e4 bb3d d7e1 cb3b
00000020: 3217 eebb 042a 393e 529a 9bbc c59c 8ebd
00000030: b16c e5bd ea4b 383c d25b 813b a9e0 053e
00000040: 20b6 153c 6581 1c3d 54ef d1bc e7e6 a73c
00000050: f12b a63d 6ccc 3fbe cc09 c5bd efec bd3d
00000060: 7a0c 943b a145 06bd 9a27 ea3c 4f4e ca3d
00000070: 85e1 f93c d34e 2d39 b39f a8bd 4aba 233c
00000080: 92fe febb ebc7 af3c d703 d63d 0fe3 a93c
00000090: c25c 583d 7be1 b13c 9b50 813d 5071 25bc
000000a0: c4b4 4d3d 81f1 a1bd 4a7a 473d c96e 9a3d
000000b0: a4cc b83d c0ac 723d 2e68 fa3b 058e 75bb
000000c0: 5013 893d be79 6cbd e4df 45bd 7924 a43d
000000d0: 8b24 8b3d 767a 81bd 97da 063e 6d4d d3bc
000000e0: 0f16 823d b343 7e3d 96e6 993d 021d 473d
000000f0: 2575 1dbd 6f51 9d3d 2b5d 433c b42d e63c
0.01572778 0.052331537 -0.02717159 0.03128187 -0.02536432 -0.04028117 0.091743745 0.0062219906
-0.0072659487 0.18082434 -0.018994484 -0.06963495 -0.11202372 0.011248568 0.0039477134 0.13073982
0.00913766 0.038209338 -0.025626816 0.020495845 0.0811385 -0.18730325 -0.09621009 0.09273707
0.004518089 -0.032781247 0.028583337 0.098782174 0.030503044 0.0001652793 -0.08233585 0.009993145
-0.007781812 0.021457633 0.10449951 0.020738153 0.052822836 0.021713963 0.063142024 -0.010097817
0.05022122 -0.07907391 0.04870061 0.07540662 0.09023407 0.05924678 0.0076418137 -0.0037468683
0.06693137 -0.05773329 -0.048309222 0.08014769 0.067940794 -0.06322186 0.13169323 -0.025793755
0.063518636 0.06207628 0.07514684 0.04861165 -0.038441796 0.07681548 0.011924068 0.028097965

weight f4 [64, 64]
00000000: 5e94 ffbb b00b 32be f451 da3e 2e2d 8c3e
00000010: fa3c 49be 60ce ce3d 6f76 6bbe 6294 da3e
00000020: eca0 193e 0a79 18bd a489 5d3e b316 79bc
00000030: 21e7 91be fb75 23bd c3c1 8fbe 1b30 73bd
00000040: 9d1a 9abe a560 fcbc 8a95 073e 70ae af3d
00000050: 3619 f23d 2339 9bbe 77f0 1d3d b4a0 3b3d
00000060: 7b83 00bd 7afe f23d 3eb1 923d da9e 353e
00000070: 3dde 853e 0a2d 9b3d 2df1 f7bc 8239 38be
00000080: d9c5 783e 374f d6bd 8226 453e bc1b 373e
00000090: 8942 293e e112 773d f36c 95bd 3dcb 443c
000000a0: ca31 6e3d 9bbe 92be 2b25 633e 9808 653d
000000b0: 8c0c cabd 459e 42be aeb2 97bd 2858 433e
000000c0: 13c3 123e 3fc3 f3ba 3d68 32bd 004b d63b
000000d0: c729 a93b e1eb 843d b4da d9bd b09e ce3d
000000e0: f1c6 7bbe 6394 1abe 216e cabb 4f65 763e
000000f0: f90d 293d 61d3 23bd 2c58 bbbd 7eb0 6ebc
00000100: 0c31 963e ba3f afbe 2a58 56bd ee8c fc3e
00000110: b0e8 df3d fbb6 71bb 9400 a63a 93ca e7bd
00000120: 6f61 82be da5c e0bd 79bf 37be 7c15 3ebe
00000130: 448f 4abe 4f86 333c 0479 aabd be7b f1be
00000140: b547 9e3d bdb6 483e dbc0 21bd bbf3 d9be
00000150: 15f6 2d3e 2f61 f43d a1f1 3cbc b028 fdbd
00000160: b008 fabc c2a6 5f3e 030d bd3e 1bdf a7bd
00000170: 28a0 ebbd 8a14 1a3e 9e91 f9bc f094 263e
00000180: 8e7e 3d3e 36ab 10be dbc6 1dbe 937e 213e
00000190: 2604 c23d 943a b9bd 9e06 9d3d 7d3e 21be
000001a0: 12f2 763e e6fc fcbd 2f0a 4c3d 41d3 2a3e
000001b0: e394 6d3d 46e1 e83c 005b 3abe 50ff c7bb
000001c0: a822 6ebe 6684 93be f7e0 11be 6ec8 e73d
000001d0: 44d1 c0be 2ed4 a7be 9989 3cbe eaa7 743d
000001e0: 6a9e 60bd 6cbe 013e 0879 883e b2b9 1a3d
000001f0: 2ed3 a03c d60e 98bd beea 13be 9968 343e
00000200: ca02 90bc ac87 163e c889 90bd 32fd 1e3f
00000210: 6976 893e 6f22 133d 1255 243d a25d 23be
00000220: f986 563e 8827 e03d 6282 1abc d49b d1bc
00000230: fdda d9bd ed81 443c 3eb4 3ebe a067 703d
00000240: 128b e43d 08ee 57bd 864b 113d b033 5b3e
00000250: 2d49 c23d 23c7 9e3c 1e0b a23d 8082 02be
00000260: cd4b 31be cf79 5cbe 011f b23e 4b02 dabc
00000270: 8d38 6bbe f192 923d 8dae e3bd 423a 7ebe
00000280: ff1f a63b 36d6 b8bb d33c adbe c1c2 84bd
00000290: 7e71 563e 1e40 30bd 07ea cbbd bb56 06be
000002a0: d7d1 87bd 460f 5dbd 3e62 a1bd a52b 273e
000002b0: d23d ac3d 9221 313e f366 843e 7aac 353e
000002c0: bcbd 3a3c c64e 163e ed38 0f3d 720b fd3d
000002d0: c698 983e 8037 06be bed0 ddbc cf65 9e3e
000002e0: 4049 473e 8db1 c23d 0663 323e bfd5 28be
000002f0: 933a d3bd 6a49 27be e6bf a33d 5606 a2bd
00000300: 3bec 7d3d 7a86 8dbe 8e4b 1e3d 864c 95be
00000310: d24a 72be 0a50 a6be cfbb 17be 0ae4 f9bd
00000320: f624 acbe c645 fbbd 789c e9bd a765 743a
00000330: b551 6e3e 3bc2 333e 22ef 2d3d a244 45be
00000340: f0d2 b4bd 90c2 89bc 651e 95be e106 de3d
00000350: f95d 2f3e 0c96 c3bd cc59 4bbe e40f d2be
00000360: 71e5 b0bd 6745 083e db5a 2ebe e5ec aebe
00000370: 2a31 a2bc db1f d0bd de22 513e 6f0e dbbe
00000380: 6952 f53d d6bc 9f3e f326 ad3e 6257 593e
00000390: af33 ac3e 132a d5be ba56 a83d f1c1 e3bb
000003a0: 3ccc 8d3e 11bd ea3d 9f81 99bb 2f3a 1dbe
000003b0: 844f 6c3e 34c9 d0bd b42a a3be 34df 60be
000003c0: cb0e e3bc da64 43be 8d7b 36bd 1380 38be
000003d0: adb7 45be b77e 82bd c3b7 823e 7e83 a13d
000003e0: 8349 60be aece 48be be3e fabd afa7 af3e
000003f0: 5c2c 77be 28e9 9fbe a72a 763c 65c8 ecbc
-0.007799669 -0.17387271 0.4264065 0.2737822 -0.19652167 0.10097957 -0.22994398 0.42691332
0.15002793 -0.037224807 0.21634537 -0.015203166 -0.2849665 -0.039907437 -0.28077516 -0.05937205
-0.3009843 -0.030807802 0.13240638 0.08578193 0.11821215 -0.3031703 0.038559403 0.045807555
-0.03137539 0.11864944 0.071627125 0.17736378 0.26146117 0.0757695 -0.030266369 -0.17990687
0.24294223 -0.10464328 0.19252971 0.17881674 0.16529287 0.06032074 -0.07296171 0.012011346
0.05815295 -0.28661045 0.22182147 0.0559164 -0.098656744 -0.19005688 -0.07407127 0.19076598
0.14332227 -0.0018597617 -0.04355644 0.0065397024 0.005162451 0.06490303 -0.106374174 0.10088861
-0.24587609 -0.15095668 -0.006177679 0.24062084 0.04127309 -0.03999651 -0.09147677 -0.014568446
0.29334295 -0.34228307 -0.052330174 0.4932627 0.109330535 -0.0036882746 0.0012664967 -0.11317935
-0.2546496 -0.1095521 -0.17944135 -0.18562883 -0.19781214 0.010957315 -0.08323863 -0.4716472
0.07728521 0.19600959 -0.039490562 -0.42568764 0.16988404 0.11932599 -0.011532218 -0.12361276
-0.03052172 0.21840957 0.3692399 -0.08196851 -0.11505157 0.15046898 -0.030464943 0.16267753
0.18505308 -0.14127812 -0.15407889 0.1577094 0.094734475 -0.09044376 0.07667278 -0.15746494
0.2411578 -0.12352924 0.0498144 0.1668215 0.058003318 0.028427731 -0.18198776 -0.0061034337
-0.23255408 -0.2881195 -0.14245974 0.11317526 -0.37659657 -0.32779068 -0.18411864 0.059730448
-0.054838575 0.12670296 0.2665484 0.03777475 0.019631948 -0.07424705 -0.14445016 0.17618026
-0.017579455 0.14700192 -0.0705753 0.62105095 0.26848152 0.03592151 0.040120192 -0.15953687
0.20949925 0.1094504 -0.0094305 -0.025587 -0.10637472 0.011993867 -0.18623444 0.058692575
0.11159338 -0.05271724 0.035472415 0.21406436 0.094866134 0.019382065 0.07912277 -0.12745094
-0.17314072 -0.21530841 0.3478928 -0.026612421 -0.22970791 0.07156933 -0.11117277 -0.24826911
0.005069732 -0.0056407703 -0.33835468 -0.06482459 0.20941731 -0.043029897 -0.099567465 -0.13119023
-0.06631821 -0.053969644 -0.07880066 0.16325243 0.08410229 0.17297962 0.25859794 0.17741576
0.011397775 0.14678487 0.034966398 0.12355699 0.29804057 -0.13107109 -0.027077075 0.3093705
0.19461536 0.095065214 0.17420587 -0.16487788 -0.103139065 -0.16336599 0.07995586 -0.07911365
0.061992865 -0.2764166 0.038646273 -0.29159945 -0.23661354 -0.3248294 -0.14817737 -0.12201698
-0.3362195 -0.122691676 -0.11406797 0.00093230087 0.23273356 0.17554562 0.042464383 -0.19264463
-0.08829296 -0.016816407 -0.29124752 0.10841156 0.17125691 -0.095501035 -0.19858474 -0.4102775
-0.086375125 0.13307725 -0.17026846 -0.3416511 -0.019798834 -0.10162326 0.20423457 -0.4278445
0.11978609 0.31198758 0.33818778 0.2122474 0.3363318 -0.41633663 0.08219667 -0.00695061
0.2769488 0.11461843 -0.0046846415 -0.15354227 0.23077208 -0.101946265 -0.31868517 -0.21960145
-0.027717015 -0.1908144 -0.04455142 -0.18017606 -0.19308348 -0.06371825 0.25530824 0.07886408
-0.21903042 -0.19610092 -0.122189984 0.3430762 -0.24138016 -0.31232572 0.015024818 -0.02890415

bias f4 [64]
00000000: ee8d adbd 8eaf 7f3d b31e 2b3e 8819 46bd
00000010: e082 f7bc fc8d a3bc 710c f1bd b943 c9bd
00000020: 349e 143d 6061 3b3e bd57 54bc a291 8dbd
00000030: 4208 003d 4715 50bd e218 3dbd 4c5e b5bc
00000040: addf a93d 80d1 163d d736 e63b 45cc 873d
00000050: 2dad b63b 4a38 a73d d6f8 5cbd 7ef9 5c3d
00000060: 1c19 d93c 01ec 7e3c 914f c5bd cf96 86bd
00000070: 4665 6c3e cfe2 82bc 0216 efbc e31b c63d
00000080: 0039 0a3e 7766 41be a71a a33e 70ff e13d
00000090: bd86 40bc 8aa9 3f3e 6ec7 ac3e 6683 3d3a
000000a0: c48c 2fbb 6f68 803d 4bdd 5cbd 20c4 443d
000000b0: e8a7 83bd 9c6e a63c c060 e93d abc1 603d
000000c0: f3a5 90bd 10b5 0ebd 0e16 ac3d 76f1 003d
000000d0: 937b 5b3d 4a59 5e3d b7c4 d53d 2ee9 afbd
000000e0: 8ffb 7f3d d3ae a63d 0f70 57bd 7267 b53c
000000f0: 778e 503d 4909 8a3d 24f2 a93e 92aa 79bd
-0.084743366 0.06242328 0.1671093 -0.048364192 -0.030213773 -0.019965164 -0.11769951 -0.0982737
0.036283687 0.18298864 -0.012960372 -0.06912543 0.031257875 -0.05080154 -0.04616631 -0.02213969
0.08294616 0.03682089 0.0070255804 0.06630758 0.0055748434 0.08165033 -0.053948246 0.05394887
0.02650123 0.015559197 -0.09634317 -0.06571733 0.23085508 -0.015977291 -0.029185299 0.09673288
0.13498306 -0.18886743 0.31856272 0.11035049 -0.011750874 0.18717018 0.33745903 0.0007229358
-0.0026786784 0.06269919 -0.05392198 0.048038602 -0.0642851 0.020316415 0.11395407 0.054872196
-0.07062902 -0.034840643 0.08402644 0.031480275 0.053584646 0.05428437 0.10437911 -0.08589397
0.062495764 0.08138814 -0.0525971 0.022144053 0.050917115 0.06740052 0.3319255 -0.060953684

weight f4 [4, 64]
00000000: 817a 64be 9c2c 3c3e a1d1 5b3d 08c4 963d
00000010: 7ba4 783e 5a5d c93c c67d f4bd 4100 83bc
00000020: 5cb6 ce3d 3877 793d 832c 0cbc d8e7 81bd
00000030: d666 523c 771e b6bc 2831 04be 8da7 543d
00000040: e8a0 ce3d 9e6b 85bd c31a be3d 4954 e33d
00000050: 3109 5f3e 8958 80be a42e dfbd 73fc 953d
00000060: ab3d 4fbc e64b adbd 0713 9cbc dd95 19bd
00000070: f955 ce3d 93f0 573d 21bf 47bd 6828 313d
00000080: 8a57 75bb 2a71 55bd 9b38 fb3d b31b 87bd
00000090: 751e 24bd f6b3 003e 6722 093e d9a9 ae38
000000a0: 9f88 06bd f609 153e 5a44 803e 4412 d03d
000000b0: 6b91 a7bd a832 423e a410 dc3d 6740 1abd
000000c0: 4924 50bd f494 343c 0a03 fe3e 6bfc 373e
000000d0: fb6a 393e c663 773e 1d9a ff3d 8c20 863e
000000e0: 6302 a33d 5c74 713e 17f7 f83c 52e7 823d
000000f0: 8dd8 073e d474 583c e994 d33d b5a2 1abd
00000100: 89f0 cfba fcba 193e 54ee 8b3d e1ff 043e
00000110: 0a73 573e b31e 953d 5903 9bbd 2071 a63b
00000120: 372a 7b3e c430 b23d a28a 95bd c296 4f3d
00000130: 97bc 963d 429e 1b3b a1a4 b53d e8a5 e6bd
00000140: d71a c03d ae26 3f3d 5c65 bc3d 5591 4e3c
00000150: b137 f33d 493d 37be 61a3 e4bd 54bb b63d
00000160: a7c5 0dbd dd28 a6bd 7d51 d1bd 7608 75bd
00000170: 653e 993d f8c9 9e3d 7879 973d f463 953d
00000180: 3688 5d3d 8b1e bebd 5a29 f23d 24cc 30be
00000190: 4482 5bbc a9fd d93d 91fd cf3d 8cce 2d3d
000001a0: 7008 95bb 24f7 0f3e 192f 8e3e 1e69 803e
000001b0: 855e 143e 918c 583e 6eb1 d33d edce 613e
000001c0: d0ab 7ebe 7077 acbd c122 b33e a8a3 8b3e
000001d0: 8f11 233e 1272 3c3e 2d85 a33d 4664 363e
000001e0: 3401 0b3e 0f42 183e 9f85 a73c f73b 713d
000001f0: d251 ba3d aaf4 c1bd f132 c53d 417f b1bd
00000200: 8698 e4bd 96a0 cd3d 1091 973d 3d7a d53e
00000210: 8546 d93e 4dc5 ec3d 61b5 cbbd dc55 5cbe
00000220: 51d8 593e 8cef b13c cb88 3fbe 8700 1cbe
00000230: d50b 293e d1d6 813d 939b cabd b6f6 84be
00000240: 2990 d03d 03d4 79be 18f6 dc3d 3ad2 553d
00000250: fe99 3ebd c227 35be 9c7a 1e3d 5b93 083e
00000260: 04f1 9a3e d704 d63c e0d5 a7bd c294 fa3c
00000270: 9c01 0c3e 959a afbd cae3 18be 32c7 043e
00000280: cc09 3c3d 2cd8 e6bd f442 bb3d 5a72 abbe
00000290: e8c2 dbbd 515e 803d 7c45 0d3e 2159 193e
000002a0: 428a bb3d 41d2 a23c f20e 2c3e 881c ecbd
000002b0: f564 eebd e305 a83e b9a5 5e3d f396 82bd
000002c0: 98f3 173e c86b 05be e4a7 e43e 5dd0 ebbc
000002d0: fc0d e23d ca01 083e 80d4 27bd 1902 5d3e
000002e0: dda9 3fbe 76b5 6b3d 624e 1f3e 70a2 0d3e
000002f0: 8f4d 243d 43c8 91be d66a cb3d 8e50 9c3d
00000300: 76a7 0f3d 7eff 543e 0806 973d 5b00 203d
00000310: bfd2 e93d fd8e f63d 8d4e 4dbd 85cc 35be
00000320: a1fa 993e d17d 533d 9ef5 323d dd2a 27be
00000330: b9d7 a93d 88d6 9ebd d3ee 20bd 2b57 74bd
00000340: 6fdc 633d c7f8 cd3e d5e6 babe 73af 2a3e
00000350: 0ddc f93d e757 3fbe c2a0 233d 069b be3d
00000360: 6867 1f3e 81ec 78be 40d5 1dbd 9b1c cbbc
00000370: c21e 323d 5cb8 b33c 193f 063e 60a0 edbc
00000380: 617c cc3d 0d29 fdbc 3746 d93d ab03 b7bd
00000390: 4e36 663c d6d8 323d e325 d93d b647 5a3d
000003a0: 8c15 66bd e761 9f3c e02b f73e d927 0d3e
000003b0: 0729 2dbe f328 18bd 6729 183e 18aa 94be
000003c0: f083 71bd c45e e0bc 89b8 9b3e 9f74 7e3e
000003d0: beee 2e3e c383 ec3e 53a3 0dbd 441a 493d
000003e0: 9fb5 353d dab9 5c3e 8aa1 86bd 3aad 9c3d
000003f0: 1375 d33c cf2a 48bd 3951 163e ab87 b2bc
-0.22312357 0.18376392 0.053666715 0.07361609 0.24281494 0.024580646 -0.11938052 -0.015991332
0.10093376 0.06090471 -0.008555534 -0.06343049 0.012841901 -0.022231324 -0.12909377 0.0519176
0.10089284 -0.06514667 0.09282448 0.111000605 0.2178085 -0.25067547 -0.10897568 0.073235415
-0.01264898 -0.08461742 -0.019052042 -0.037496436 0.10074992 0.052719664 -0.04876626 0.043251425
-0.003743621 -0.052109875 0.12266656 -0.0659708 -0.04006811 0.1256865 0.1339203 8.328603e-05
-0.032845136 0.14554581 0.25052148 0.10159734 -0.08182033 0.18964636 0.107453614 -0.037659075
-0.050815854 0.011021841 0.49611694 0.17967384 0.18107216 0.24159154 0.12480567 0.26196706
0.079594396 0.23579544 0.03039126 0.06391777 0.13266201 0.013211448 0.10331137 -0.037752826
-0.0015864532 0.15012735 0.06832567 0.12988235 0.21039978 0.07281246 -0.07568998 0.0050794035
0.24527822 0.087007076 -0.07301833 0.050680883 0.073601894 0.0023745452 0.08869291 -0.11262113
0.09380119 0.046667747 0.0919902 0.012607892 0.11875857 -0.17894472 -0.111639746 0.08922449
-0.034612324 -0.08113263 -0.10220621 -0.059822522 0.07482604 0.07753366 0.07396215 0.07294455
0.05408498 -0.09283169 0.118242934 -0.17265373 -0.013397757 0.10644085 0.10155786 0.042433307
-0.004548125 0.1405912 0.27770308 0.25080198 0.14489181 0.21147372 0.103365764 0.22051592
-0.24870229 -0.084212184 0.34987453 0.27273297 0.15924667 0.1840289 0.07984386 0.17811689
0.13574678 0.1486895 0.020449458 0.058895078 0.09097637 -0.09470494 0.09628857 -0.0866685
-0.11161904 0.10040395 0.07400715 0.41694823 0.42436615 0.1156107 -0.09946705 -0.21517128
0.21273924 0.02172067 -0.18704526 -0.15234576 0.1650842 0.06339801 -0.09892955 -0.25969476
0.10183746 -0.24397282 0.10789126 0.05220244 -0.046533577 -0.17690948 0.03869115 0.13337462
0.30262005 0.026125355 -0.0819509 0.030588511 0.13672489 -0.08574406 -0.14930645 0.12966612
0.04590778 -0.112717 0.0914363 -0.3348568 -0.10730535 0.062679894 0.13796037 0.14975406
0.0915723 0.019875648 0.16802576 -0.115288794 -0.1164035 0.3281699 0.054357264 -0.063764475
0.14839017 -0.13029397 0.4465934 -0.028785879 0.110378236 0.13281932 -0.04097414 0.21582831
-0.18717141 0.0575461 0.15557244 0.13831496 0.04011303 -0.284731 0.09932487 0.07632552
0.035071813 0.20800588 0.07374197 0.03906284 0.1141715 0.120389916 -0.05012374 -0.177538
0.30074027 0.05163366 0.04369127 -0.16324945 0.08293099 -0.07755762 -0.03929026 -0.059653442
0.055630144 0.40228865 -0.36504236 0.16668491 0.122001745 -0.18685876 0.039948232 0.09306912
0.1556679 -0.24308969 -0.03853345 -0.024793914 0.043486364 0.021938495 0.13110007 -0.029007137
0.09984661 -0.030903364 0.106090955 -0.089362465 0.014051033 0.043663822 0.106029294 0.053291045
-0.056172892 0.019455863 0.4827566 0.13784732 -0.16910182 -0.037148427 0.14859544 -0.2903602
-0.058963716 -0.027388938 0.30414227 0.24849175 0.1708326 0.46194276 -0.034579586 0.049097314
0.04436266 0.21555272 -0.0657378 0.07650228 0.025812661 -0.04886895 0.14679421 -0.021793207

bias f4 [4]
00000000: d48f 833e e329 8f3e 37a0 853e f9c0 903e
0.2569567 0.27961645 0.26098797 0.28272226
