results/dqn_checkpoint_seed2.pt (torch_old, 35984 bytes, 6 tensors)

weight f4 [64, 37]
00000000: 16e3 a13e f57a 32be b42f 37be 8ec2 06bf
00000010: cbe3 75bf d89f 0f3e 35ab c23d ef4b 49be
00000020: 3169 adbe c1f7 a1bd d587 363d 57f8 24be
00000030: d303 723e 370a b73d f4b2 c33c f3d1 a7bd
00000040: 61ce c63d a9fa 363d 34b8 2f3e 1d22 a1be
00000050: d2fc a4bd 5278 983d 0d3c eb3d a81a adbe
00000060: 8512 3cbe 8f85 4e3e ae4b 6e3e a76c d4be
00000070: 400b 5e3d 15a9 03bf b471 9b3d 6945 8bbe
00000080: 512a 313e 2a53 62be bcf8 543e 4ba7 c43d
00000090: 48d1 03be 82e0 e63c 2d5a 383e 6efe 053e
000000a0: c8d9 cf3c f067 cd3d 1e2a 0fbf 67d7 823e
000000b0: 6da8 81bc b64d c23e 592f 5b3f e23d bdbd
000000c0: 6196 d2bd c6c6 c23b def5 053e 2701 2f3e
000000d0: d36d 2dbe acb9 1cbd d4ad 6ebd cc1d f7bd
000000e0: da65 4abe f5ff 5f3e 7e9f 06bc 577a 46bd
000000f0: e9af 92bd b74f 263e c0c1 b03d e265 ac3c
00000100: 5d48 c8bb 0dd9 3e3c 65bf 7d3e 4267 4d3d
00000110: 67ba 72bd 17bd 723d e8cb 77be 1b52 823e
00000120: 599c d7bc 1324 bb3d 9c0e abbe e914 453e
00000130: 9e15 abbd 1a6e 89bd 5d2b 563e e9f3 80be
00000140: e710 d03d ee24 153e 51b3 533e 85fb c93e
00000150: b6f5 123d 41cf 953c 6fa7 adbd 1bf8 42be
00000160: 07c9 a4be 65d4 c43e 3949 93be 0aef 81be
00000170: 7fbf f6bd ac44 85bf 086f 4a3c 0dc3 b1bd
00000180: cb80 3abb ea4b 69bd 4462 ce3d 2a12 10bd
00000190: b89d c7bd 6b79 d5bd c62c ea3e d83d 023f
000001a0: 9486 95bd e27d 40bd 250b 383b 0813 8cbd
000001b0: bc69 35be 473a 053e d8bc bcbc d9a5 7b3e
000001c0: 23ec 59bd 5995 6e3e d71d 1b3d 3b10 b4be
000001d0: ebf4 b9be bd0d f03d 70dc 593e fae1 573e
000001e0: 9d85 99be 29ff e83d 468a d53d 92c1 ca3d
000001f0: 3254 853d ac77 a23d 7081 383d acdd 90be
00000200: 39d8 593d cc84 2a3d e507 52be 37af 7d3e
00000210: 13b6 24bc e6d5 cfbd 79fc 2cbe cc7a c9be
00000220: 4d00 2b3d bb62 4c3e 2e54 933e d8ef 6a3e
00000230: fa96 083f c25b 9b3c 5e94 703d 87df 3abd
00000240: adcf 84be e3e6 d53c c112 113e acb8 a6bc
00000250: dab2 7b3d 8af8 343d d19c 323e e2e7 0e3e
00000260: 0ea6 86bd 1725 16be af70 8ebd 924a f9bd
00000270: 0ce9 59bd e689 e63e c578 82be dadd 91bb
00000280: bbb9 663d 922a a2bc eaa3 8c3d c7d0 543d
00000290: 4eb1 5b3c 527a 283d 3adb 963d 4bc5 d1bd
000002a0: ac8c 75be 6f46 88bd 5e03 8f3e e558 a73e
000002b0: a59f 773f a780 133e 1ddd 5e3d ad73 fe3e
000002c0: b405 f83d 0d71 623e 3603 3bbe c05a 883d
000002d0: 8978 943e 2da2 4a3b e683 633e cc77 3abd
000002e0: cae4 b9bc d1c7 1f3e 7b75 643e 83a9 2e3e
000002f0: c337 353d 5926 01be 713f 2f3e 9c17 5e3d
00000300: 00bb 453b 11d0 3b3e 0ff5 093e c708 46be
00000310: 81c7 58bc cb8e 99bb cd8c dc3d 43ba 6c3e
00000320: 7434 8bbd abad 8dbe f7a0 a1bd a255 fcbc
00000330: 11f2 413e 1dbe b4ba bb2d 0bbe 602d f7bc
00000340: 9072 9d3c 565f acbc a4e5 a43e 37d1 f7bd
00000350: 6a3c 2fbf 8de0 b1be f8fd c1bf 9ee6 7bbc
00000360: 7ea7 ab3c a747 14be 7af8 05bf c155 00be
00000370: 01e9 523e 66c3 373d 0aac f2bd 8e6a 75bd
00000380: ca00 0fbe 6ef1 75bc e67d 123e 78c9 2d3e
00000390: 24ea d5bd ea70 98bd 741a 8a3e d0ae dc3e
000003a0: 33ca 93bd eba1 3d3e 912d f63b 6a6f bc3d
000003b0: 29cd 18be 9751 f9bc 0a9f b03c 289b 383b
000003c0: a973 35be 2c0b ba3d a5f1 ae3e d614 80be
000003d0: fa22 5fbe a14c a53d 2bd9 a9bf c73c 5f3e
000003e0: c444 5a3a c8c1 bfbd 4fa8 94bd ee14 39be
000003f0: b827 673d 743f 723e b15a b73d bc56 1c3e
0.31618565 -0.17429717 -0.17889291 -0.52640617 -0.9605071 0.1402582 0.095053114 -0.19657873
-0.33869317 -0.079085834 0.044563133 -0.16110359 0.23634271 0.08937495 0.023889042 -0.081943415
0.097073324 0.044672642 0.17160112 -0.3147134 -0.08056034 0.07444824 0.11486063 -0.338094
-0.1836644 0.20168136 0.23271057 -0.41489145 0.054209948 -0.51429874 0.075900465 -0.27201393
0.17301299 -0.22102037 0.2079801 0.09602221 -0.12872803 0.028183226 0.1800315 0.13085338
0.0253724 0.1002959 -0.5592364 0.25554964 -0.015827382 0.37949914 0.8561912 -0.09240319
-0.10282589 0.005944106 0.13082072 0.17090283 -0.16936426 -0.038263008 -0.058271244 -0.1206623
-0.19765416 0.21874984 -0.008216737 -0.048456516 -0.071624584 0.16241346 0.08630705 0.021044675
-0.006112142 0.011648429 0.24780042 0.050147302 -0.0592598 0.05926236 -0.24198878 0.25453267
-0.02631967 0.0913774 -0.33409584 0.19246258 -0.083537325 -0.06710453 0.2091498 -0.2518609
0.10159474 0.14564869 0.20673873 0.39449707 0.03587886 0.018287303 -0.08479201 -0.19039957
-0.32184622 0.38443294 -0.28766802 -0.25377685 -0.12048244 -1.0411582 0.0123555735 -0.08679781
-0.0028458114 -0.056957163 0.100773364 -0.035173573 -0.09746879 -0.10423549 0.45737284 0.50875616
-0.07301059 -0.04699505 0.0028082815 -0.068395674 -0.17716116 0.13010512 -0.023039266 0.24574985
-0.053203713 0.23299159 0.037870254 -0.35168633 -0.3631967 0.1172137 0.21275496 0.21082297
-0.2998475 0.11376793 0.10426764 0.09900202 0.065101996 0.07932982 0.045045316 -0.28294122
0.05318472 0.04163055 -0.20510824 0.2477387 -0.0100531755 -0.1014822 -0.16893186 -0.393515
0.041748334 0.19959538 0.28775162 0.22943056 0.5335537 0.018964652 0.058735244 -0.04562333
-0.25939694 0.026111072 0.1416731 -0.02035173 0.061449863 0.044182338 0.17442633 0.13955644
-0.06574641 -0.14662586 -0.069550864 -0.12172426 -0.053200766 0.45027083 -0.25482765 -0.0044514956
0.05632947 -0.01979569 0.068672016 0.051956918 0.013408972 0.04113228 0.07366033 -0.10242709
-0.23979443 -0.06654059 0.27932256 0.3268501 0.96727973 0.14404546 0.05441009 0.4969763
0.12110463 0.22113438 -0.18262944 0.06657934 0.2899821 0.0030919418 0.22218284 -0.045524403
-0.022692103 0.15603568 0.2231044 0.17056851 0.04424263 -0.12612285 0.17114045 0.054221734
0.0030171275 0.1834109 0.13472389 -0.19339286 -0.013231159 -0.0046862117 0.10769043 0.23117928
-0.06797114 -0.2767156 -0.0789203 -0.030802552 0.18939997 -0.0013789568 -0.13591664 -0.030173004
0.019219667 -0.021041553 0.32206452 -0.121004514 -0.6845156 -0.3474163 -1.515563 -0.015374808
0.02095389 -0.14480458 -0.5233227 -0.12532713 0.20596696 0.04486408 -0.1184922 -0.05991607
-0.13965145 -0.015011175 0.14305839 0.16971385 -0.104450494 -0.07443412 0.26973307 0.4310212
-0.07216301 0.18518798 0.007512756 0.09200938 -0.14922012 -0.030434413 0.02156021 0.0028168652
-0.17719902 0.09084162 0.34168735 -0.25015897 -0.21790686 0.080712564 -1.32694 0.21800528
0.0008326287 -0.09363133 -0.07258665 -0.1807439 0.056434363 0.23657018 0.08952845 0.15267462

bias f4 [64]
00000000: 8e01 eebc 8e9f 9fbc 89e3 cc3b 592c 5e3d
00000010: 4388 47bd eca8 d13d ff52 91bc 01fa b83d
00000020: 5699 3f3d af70 2b3d 2a0c 03bc d0b4 28bb
00000030: e5ee f538 6d63 003b e0ea d83d b387 3c3e
00000040: 6429 2bbc f16f 93bd b9c8 893c 0e6b b33d
00000050: 522a 173d 74bc 8abd 20ca 003c 2a5e 3d3d
00000060: c15c ac3d a7f4 643d d1b6 903b 232a 26bd
00000070: 7e5f 2fbd 04ca 383d 1d86 203c 618d d03d
00000080: 78cb 87bd d66d 773d ad09 68bd 664a 193c
00000090: 11be f8bc 4475 e63c 8c03 b83c 429c 68bd
000000a0: eba5 653d 16be 8a3d edc4 143e 0d10 3fbd
000000b0: 7d18 ef3d 537c ac3d ddee a63d 7add 3c3c
000000c0: e2ee 2a3d 82f0 20bc 7d81 14bb 52f0 e03d
000000d0: 4394 083e 48be 883c c390 0a3e 0c26 e73c
000000e0: 168a 3a3c 598c 9b3d d709 1c3d 1c2c 693d
000000f0: 0d6c 873d 185f 003c 1d12 563e e061 cabd
-0.029053476 -0.019485261 0.0062527102 0.054241512 -0.048713934 0.102372974 -0.017739771 0.090320595
0.046777092 0.04185551 -0.007998506 -0.0025742538 0.00011727008 0.0019590512 0.10591674 0.1841114
-0.01044688 -0.071990855 0.016819345 0.087606534 0.036905594 -0.06774226 0.00786069 0.04623238
0.08416129 0.05589738 0.0044163247 -0.04056753 -0.042815678 0.045114532 0.0097976 0.10183216
-0.066306055 0.060407482 -0.056649853 0.009356117 -0.030364068 0.028132088 0.022462629 -0.056789644
0.056066435 0.06774537 0.14528246 -0.046646167 0.11674593 0.084221505 0.08151028 0.0115274135
0.041731723 -0.0098229665 -0.002266019 0.109833375 0.13337807 0.016692296 0.13531785 0.028216384
0.011385461 0.075951286 0.03809532 0.05692683 0.06612406 0.007835172 0.20905347 -0.098819494

weight f4 [64, 64]
00000000: f11e 253e 839e 13be e53c 753e 0c20 b03c
00000010: 9ced 0bbe f282 59be bc07 b5bd b655 74be
00000020: 35ad 113d 6958 eebe 3859 083e 48c0 aebb
00000030: 24ac 3a3d 31b8 f73c e7c8 2e3e 1ec0 643e
00000040: ce0c c23d ca08 a5bc 6cdd 7dbe dc7d aebd
00000050: 3fbd 78be 937b 223d 8d2b 063d 3753 e9bd
00000060: 3018 b1bd ede7 df3d 233d 9a3d 48b6 cdbd
00000070: d78a 533e 1ebf e6be 53a7 1abd fe7f 093e
00000080: a3db 8ebc 4461 9f3e 95d5 54bc 9363 223d
00000090: d18c 883d 50ac dc3d b0de 5bbd 596b b3bd
000000a0: 201f d9bc 91db fcbd 8614 67be 5e6a 7ebc
000000b0: 1cc5 bbbc dda1 2dbe 9446 44be 75ad 3b3e
000000c0: 7635 3a3b a0c5 4abe efb2 c2bd 8cbf 153e
000000d0: 7e55 98be 9a69 c0bd 559b a53e fe1d 1bbe
000000e0: 3ca7 fbbd 489b 133d 5f28 55bd f937 04be
000000f0: c3d2 71bd f1e3 5d3e e3fd 843c 59f3 da3b
00000100: 0c0e 2b3e 8122 4a3c beae af3a 80b0 7cbd
00000110: 6f47 93be 8a07 b5bc 0622 9b3e 5e17 aebd
00000120: 88c6 b33d ee47 30be 57df b0bd e674 97bd
00000130: 26f7 57be 1b06 8bbe 0360 c4bc 1bf3 183e
00000140: f879 84bd d153 873e 0af8 7d3d d667 823c
00000150: d74d 833e 6641 a0bc b980 38bd 8492 1d3e
00000160: d06a c13e 561b 7d3e 7ac9 a3bd 41cf ab3d
00000170: fcd4 08be 0f32 2dbe f5c2 313d 5d78 853e
00000180: 5fbb 41be 91f3 aebd 7c9f eabd cc8a 273d
00000190: b202 93be df14 f4bd 70e3 833e ebca 84bc
000001a0: fbc2 223e 63dc 653e d9d2 b83e 5423 e33d
000001b0: f652 7bbd f8a9 003d d530 913e 4963 cd3d
000001c0: f443 22be 0628 02bf 7c5d 8f3d acab 23be
000001d0: cd8e 00be 9d2e 713e 8223 a8be 1bdc 5a3e
000001e0: 0ade 13bd b323 8b3d 71c4 20be 735a 1abf
000001f0: 3dd8 6cbe edac 1fbe 7329 d23c b6d8 d6bc
00000200: 5ae2 abbd 0a5b 4b3e 0b7a b9be 4252 9c3d
00000210: 1a72 c1bd bd72 85bd f2e4 943e 94a3 453e
00000220: 433c 07bd 668e da3d 209f d0be fb55 0a3e
00000230: 4727 693e e908 dd3d b731 09bf 2eed 3c3e
00000240: 569e 81be a6d2 10be cdba 9d3e a205 f9be
00000250: 555a cfbe 9190 92be 2e42 903e b7de 18be
00000260: 7068 14be ae86 6abd 0240 c03d d6e7 5abd
00000270: ec9c 25be cb98 ad3d 2850 88be a29a b1be
00000280: 6958 9c3d b3d0 e6be 318c 68bd f891 12bf
00000290: ffc0 d63d 7d7a 46be fc53 543d 08d4 10bf
000002a0: 877e c83d 08a1 2f3e 4060 9b3c 5f79 39be
000002b0: 33fc eebd 8a6b df3c 8229 a4be bdc8 c2bd
000002c0: e8c3 bebd 4d23 69be e804 a33a d4c0 38be
000002d0: 6267 8ebe 9307 bdbe 6b3f 953e ca3c 9abd
000002e0: 3682 0cbd 11ec 65bd 0191 0ebe 7584 6cbe
000002f0: 56ee b6bc 4939 51be 1d10 e2bc 0b0d a7be
00000300: 7739 d9bc 7692 3fbe a04f ec3b 0b0d 32ba
00000310: fbaa 023b 6606 b4bc 94f6 fcbd 63a3 9cbe
00000320: e3f0 043c 024c 91be b93a fb3d 4cd2 11be
00000330: 0bfd de3d f4ce b03d 38a4 143e 5aeb cf3e
00000340: 4297 9b3c 6522 8abd 32c3 80be 2c1d 3b3b
00000350: f6b5 783b 12dd 0a3d 8fb6 bb3c a3cc 6ebe
00000360: 86d9 ccbd b58c 75bc 5f4d 8bbe f46b 833d
00000370: 0da4 8f3e 7a52 ccbe 2152 9d3c 073b f73d
00000380: 9ef8 c2bd 6bad 9f3e c96a c1be ec4b 903c
00000390: 5855 84bd dd03 f7bd 637f 943e 3ebf 03be
000003a0: 5102 fbbd f15b 173e c5e4 29be 67a1 ce3c
000003b0: 4b4a 5f3d 650a 43be 3d98 823d fc99 693e
000003c0: b2bd ee3d c12c c1be 06aa a8bc 7ce2 533e
000003d0: cb2e 36bf 4dd8 453d fb02 d13e 3e77 263d
000003e0: e31c b0bd 1394 efbc 628b 413d ca0a 7ebd
000003f0: b7b5 7fbe fb4a 113d a6a7 33bd 6c62 df3d
0.16125084 -0.14415936 0.2394901 0.021499656 -0.1366486 -0.21241358 -0.08839366 -0.23860821
0.035565574 -0.46551827 0.13315284 -0.0053329803 0.045574322 0.030239196 0.17068826 0.22338912
0.094750986 -0.020145793 -0.24791497 -0.085200995 -0.24290942 0.03966863 0.032756377 -0.11392825
-0.086471915 0.10932908 0.07531192 -0.10044533 0.20658432 -0.45067686 -0.03775723 0.13427731
-0.017438715 0.31128895 -0.012990375 0.039645743 0.066674836 0.107750535 -0.05367917 -0.08760709
-0.0265041 -0.123465665 -0.22566423 -0.01552829 -0.022921138 -0.16956277 -0.19167548 0.18327887
0.0028413213 -0.1980195 -0.09506785 0.1462385 -0.29752725 -0.09395142 0.3234507 -0.1514816
-0.12287757 0.03603676 -0.052040454 -0.12911977 -0.05903889 0.21668984 0.016234344 0.0066818413
0.16704577 0.012337328 0.0013403518 -0.06169176 -0.28765437 -0.022098321 0.30299395 -0.08500551
0.08778101 -0.17214939 -0.08636349 -0.073953435 -0.21090373 -0.27153096 -0.023971563 0.14936487
-0.06468576 0.26431134 0.062004127 0.015918653 0.25645325 -0.019562434 -0.045044634 0.15387923
0.37776804 0.24717459 -0.07997413 0.0838914 -0.13362497 -0.16913627 0.043398816 0.26068392
-0.18919133 -0.0854255 -0.114562005 0.04090385 -0.28712994 -0.11918043 0.2575946 -0.01621004
0.15894692 0.22447352 0.36098364 0.11090723 -0.061358415 0.031412095 0.28357568 0.10028703
-0.15846235 -0.5084232 0.070002526 -0.15983456 -0.12554474 0.23552938 -0.3283959 0.21373026
-0.036100425 0.067939185 -0.15699936 -0.60294265 -0.23129363 -0.1559331 0.02565453 -0.026226383
-0.083927825 0.19858947 -0.36225924 0.07632877 -0.09445591 -0.06516025 0.2908092 0.19300681
-0.033016454 0.106716916 -0.40746403 0.13509361 0.2276889 0.10792715 -0.53591484 0.18449852
-0.25316113 -0.14142856 0.3080658 -0.4863711 -0.40498605 -0.2862592 0.2817549 -0.14928709
-0.14492965 -0.057257347 0.093872085 -0.053443752 -0.16173142 0.084764086 -0.26623654 -0.34688288
0.076340504 -0.450811 -0.056774322 -0.5725398 0.1048603 -0.19382663 0.051837906 -0.56573534
0.09789758 0.17151272 0.018966794 -0.18112706 -0.11669197 0.027272958 -0.32062918 -0.09510944
-0.0931471 -0.22767372 0.0012437375 -0.18042308 -0.2781325 -0.3691984 0.29149947 -0.07531126
-0.034303866 -0.056133334 -0.13922502 -0.23097403 -0.022330444 -0.20432009 -0.027595574 -0.32627138
-0.02651666 -0.18708214 0.0072116405 -0.00067921047 0.0019938338 -0.021975707 -0.123517185 -0.30593404
0.0081140725 -0.28378302 0.1226706 -0.14240378 0.10888108 0.08633223 0.1451577 0.40609246
0.018993024 -0.067448415 -0.25148922 0.0028551323 0.0037950254 0.033902235 0.0229142 -0.2332025
-0.10002427 -0.01498716 -0.27207467 0.06417075 0.28054848 -0.39906675 0.019204201 0.120718054
-0.09520076 0.31186995 -0.37776783 0.017614327 -0.064615905 -0.12061284 0.29003438 -0.12865922
-0.12256301 0.14781167 -0.16591175 0.025223447 0.05451421 -0.19046934 0.063766934 0.22812647
0.11657275 -0.37729457 -0.020588886 0.20691866 -0.7116515 0.048301984 0.40822586 0.040641062
-0.0859926 -0.029245412 0.047252066 -0.062022008 -0.24971662 0.035471898 -0.043861054 0.10907444

bias f4 [64]
00000000: db07 913c 6076 dc3d 2c35 493d 9157 7a3d
00000010: bc0c a73d b478 2d3c e566 99bd 8d1b 803d
00000020: 4a2d bbbd 313c 0b3e ad75 cabd a780 1f3d
00000030: 1eee b5bb d09a 843c b171 393b 0350 fa3e
00000040: d31f 5bbd 9f58 6cbd 82cf 6ebc 9d5f 22bd
00000050: 6bf7 3dbd dede abbd cad9 ce3d 3cca 7d3d
00000060: 2b20 c1bd efc3 0ebe f764 52bc 62d1 0abd
00000070: 7d1d 89bd 918e a53d 562e 12bb 555f 40bd
00000080: b1fb 173d f3d9 16bb 8e7b 023d 09e2 8abd
00000090: 4817 123d a090 7b3a 9a4b 4a3e 37ae 1fbd
000000a0: 30a1 fc3c 88c7 76bd 8b1c d9bc 0ddd a43d
000000b0: 3172 6b3d 87c0 d43d 5557 e03c 2111 b2bc
000000c0: be87 313d affe ef3d d9b3 443d 491c 10bd
000000d0: cd8f 8d3e 4f0c fd3d 83a7 ee3d d9a5 e83d
000000e0: c5f1 d83c fd72 2abd 68bb 76bd 9b3e ab3d
000000f0: 4ce7 af3c aab3 80bd 6561 f33c 87cb 68bd
0.017703941 0.10764766 0.049122974 0.061118666 0.08156726 0.01058786 -0.07490329 0.06255255
-0.091394976 0.1359718 -0.09885726 0.03894105 -0.0055520674 0.016187102 0.0028296525 0.4888917
-0.053497147 -0.057701703 -0.014575841 -0.039641965 -0.046378534 -0.08392118 0.10100134 0.061960444
-0.09429964 -0.1394193 -0.012841455 -0.03389109 -0.066950776 0.08083833 -0.002230545 -0.046965916
0.037105266 -0.0023018091 0.031856112 -0.06781394 0.035666734 0.0009596441 0.19755402 -0.038984504
0.030838579 -0.06024888 -0.026502868 0.080499746 0.05748195 0.10388284 0.027385393 -0.021736683
0.043342344 0.11718499 0.04802308 -0.035183225 0.27648774 0.12355863 0.11653044 0.11359758
0.026482472 -0.041613568 -0.06023732 0.083615504 0.021472596 -0.06284268 0.029709527 -0.056834724

weight f4 [4, 64]
00000000: 37b9 613e 478a b83d ee5b 3c3d 0373 113e
00000010: 65f4 d13d cd7e e23c 168d 03be 07a0 d13d
00000020: 4d3a 60bc d92d 753e 54d8 75bd d885 2abe
00000030: a2c6 97bd 49c9 b83b c6dc 763d 6e26 343e
00000040: ee95 1bbd 9058 0dbe af53 94bd b994 2f3d
00000050: 32ee 54bb c058 c7bd 17db 303e d1c4 893d
00000060: 5bf0 bebd 4c05 99bc 2e48 943d 4035 80bd
00000070: dd60 5c3d 4b09 fabd 1477 3cbd 400b 62be
00000080: 99a4 bfbe a1f0 11bc bb25 773e a7d3 713e
00000090: 3635 2fbd 5081 88be 5842 f23d b287 ec3d
000000a0: dfa6 7a3d 8d79 393d 3ac1 19bd c23c 143d
000000b0: 61f0 713e f889 833d 083e c13c 62aa 9a3b
000000c0: 244d 0f3e 6dd6 e33d 408f dc3e ffff d3bd
000000d0: 1834 c13d b09b 2e3e 0ea1 283e c788 e03d
000000e0: b7a2 623e 243b 46bd db86 f0bd a4b4 a8be
000000f0: 07a1 7a3d 3218 2b3e c901 30bc 9218 aabd
00000100: 4c08 0d3e 5281 df3d 7ba1 90bd 1d5b 013e
00000110: c00a c93d daca 1d3e 2d1a fabd b1bd e93d
00000120: 8953 dfbd dfbb 633e 034e 40bd aebf fe3c
00000130: 20bf 51bd a0fb a1bc 5f73 a7bb 8f6e 1c3e
00000140: ac83 d8bd adf7 c6bd 7367 62be c1a5 2c3d
00000150: b545 59be 6196 febd 4742 2c3e 6fee 213e
00000160: c6e3 683c 92d0 d0bc 27a9 94ba 217b 2c3b
00000170: c922 e0bd 3c8f a7bd 2459 8f3d 8ff2 15be
00000180: 07ba 11bd ac3c 30be 34b1 693e e5bd b73d
00000190: fab8 75bd f107 e23d dbd9 b33d d902 793d
000001a0: d8e4 e4bd e3cd b03c 2752 a83c 753a f53c
000001b0: 3bc5 f33d ecc0 533d c60c 3fbd 9803 f93c
000001c0: 65db 3d3e c590 a43d b3bf 673e 5015 9abd
000001d0: ff8c 983d 1861 4d3d 8d6c 9a3e b51c e53d
000001e0: 0926 3a3e 9eaa debc 47ce c8bd 68ed 503d
000001f0: 135e ca3d bbdf 803e a814 773d 9037 e33d
00000200: 98fb 613e d36e 6f3e 3df0 7c3c 96d7 d4bc
00000210: f385 913d 1cca 4b3e 388b cc3d ea1f cd3d
00000220: 11ab f6bd bd28 123f 1de7 20be 3eac 893e
00000230: 5fda c9bc a1e1 8d3d c890 a33c 607c 1b3e
00000240: cfe5 a0bd 3497 08bd edcb c63d 0679 743e
00000250: aca5 e0bd 28cf 17be ea1a af3c 704b 263e
00000260: 1636 df3d 0bf8 a53c fa20 fd3d 3411 6d3e
00000270: f122 113e 6397 95be 2797 863d 1e4a cbbd
00000280: f907 15be f5c9 66bd 695d c63c 2208 e1bc
00000290: 5574 403e dcdc 14be 5052 bf3d 3e3e 95bd
000002a0: 1d9d 22be 93c8 c1bc 2add 0c3d 1541 d93d
000002b0: 760c 583b 349a e13d 39ba 35bd 956e f9bd
000002c0: 3358 373b 707d 3c3d 959c 863e 439d dfbd
000002d0: a807 dc3d 6637 193e 42eb 463e ed09 df3d
000002e0: 3fec 073e 04c9 df3c 532e 75bc 9524 22be
000002f0: 3669 093d 341e 25bd e501 8a3d 0afa 94bc
00000300: 9b8b 783e 3652 8f3d e52b a1be 7f51 7fbd
00000310: 59ca 223e c65b 92bd 4b17 1cbe a5a8 f83d
00000320: 5040 d9bd d956 873c 7dc2 f13b 820e 67be
00000330: 631e 183d f232 e63d 093a 783e 30e6 1e3e
00000340: 182f a13b 0a69 e8bd 3766 103e f69b 623d
00000350: 895d 72bd 8dc9 d63c 68d2 3c3c 9b7a 743c
00000360: 8074 42bc 01c4 67be 1d9a e63c 74a0 eabc
00000370: 5fb1 56be bfba 613e 1def 3dbe 9c13 37be
00000380: b520 a7bd 7977 ac3d e9dc 753e fb59 ae3e
00000390: 9be1 f4bc f6ed c6bd 9a05 bb3d 5050 9cbd
000003a0: 01cb adbd e455 2f3e aef7 24be 272a 883d
000003b0: 2b02 603e 8acc 223e 0f16 ab3c 9b18 a9be
000003c0: 11af b33e 2da2 e33c f032 5d3e 65d3 d3bc
000003d0: 41f2 fd3d c816 9b3e 45e6 3f3d 4990 0cbc
000003e0: 6df0 7c3e 1f40 fa3d 8b68 1bbe 152d 853d
000003f0: 47c7 653e 39a4 433e b07f ba3d 625f 3a3e
0.2204331 0.09010749 0.04598611 0.1420403 0.10251693 0.027648354 -0.12846789 0.10235601
-0.013685775 0.2394327 -0.06002076 -0.1665262 -0.07410933 0.0056392294 0.06026914 0.17592785
-0.03798478 -0.13803315 -0.07242524 0.042866442 -0.0032490608 -0.097337246 0.17271076 0.06726993
-0.09323188 -0.018679284 0.0724033 -0.06260157 0.053803314 -0.12208804 -0.046012 -0.22074604
-0.37430266 -0.008907468 0.24135487 0.23615895 -0.042775355 -0.26661158 0.1182906 0.11549319
0.061194297 0.045281935 -0.03753779 0.036190756 0.23626854 0.064228 0.02358915 0.0047200182
0.1399427 0.11124883 0.4307804 -0.10351562 0.09433764 0.17051578 0.16467687 0.10963588
0.22132383 -0.048396245 -0.11744472 -0.32950318 0.061188724 0.16708449 -0.010742613 -0.08305468
0.13772696 0.10913338 -0.0706205 0.12632413 0.098165035 0.15409413 -0.12212024 0.11413134
-0.10904605 0.22239636 -0.046949398 0.03109726 -0.05120766 -0.019773304 -0.005110189 0.1527655
-0.105719894 -0.09715209 -0.22109775 0.042150263 -0.21217997 -0.12431026 0.16822158 0.15813611
0.014214462 -0.02549008 -0.0011341915 0.0026318508 -0.10944135 -0.08181617 0.06999424 -0.1464331
-0.0355778 -0.17210644 0.22821504 0.089717664 -0.05999086 0.11036671 0.08781787 0.06079373
-0.11176461 0.02158255 0.020546986 0.029935101 0.11902853 0.051697657 -0.04664304 0.030397221
0.18540724 0.08035425 0.22631721 -0.07523596 0.07448768 0.050141424 0.30160943 0.11187116
0.18178572 -0.027180966 -0.09804969 0.05100766 0.098812245 0.25170693 0.060322434 0.11094582
0.22068632 0.2338212 0.015438137 -0.025981706 0.07105627 0.19901317 0.09987491 0.10015853
-0.12044347 0.5709341 -0.15713163 0.26889223 -0.02464026 0.06927801 0.019966498 0.15184164
-0.078563325 -0.033347324 0.097068645 0.23874292 -0.109690994 -0.14825118 0.021375138 0.16239715
0.10898988 0.020259878 0.123598054 0.23151094 0.14173485 -0.2921706 0.06571799 -0.09926246
-0.14553823 -0.056344945 0.024214463 -0.027469698 0.18794377 -0.14537376 0.09341872 -0.072872624
-0.15880246 -0.023655212 0.034390606 0.106081165 0.0032966412 0.1101574 -0.04436705 -0.12179295
0.0027976155 0.046018064 0.26291338 -0.10918667 0.10743648 0.14962539 0.19425681 0.10890565
0.13273714 0.027317531 -0.014964658 -0.15834267 0.033547603 -0.040312007 0.067386426 -0.018185634
0.24272005 0.06998102 -0.314788 -0.06233358 0.15897502 -0.07146411 -0.1524326 0.121415414
-0.1060797 0.016520904 0.007377921 -0.22564128 0.037138354 0.11240186 0.24240889 0.15517497
0.004918944 -0.113481596 0.14101492 0.055324517 -0.059171233 0.026219154 0.011524774 0.01492181
-0.011868596 -0.22633363 0.028149659 -0.028640963 -0.20966099 0.22043894 -0.18548246 -0.17878574
-0.08160535 0.08421225 0.24010052 0.34053025 -0.029892733 -0.09713356 0.09131928 -0.07632506
-0.084859855 0.17122608 -0.16110107 0.06648665 0.21875827 0.15898338 0.020884542 -0.33026585
0.35094503 0.027787292 0.21601462 -0.025857637 0.12399722 0.30290818 0.04685046 -0.008579322
0.2470109 0.122192614 -0.15176599 0.06502739 0.224393 0.19105615 0.09106386 0.18200448

bias f4 [4]
00000000: cb20 ba3e ca8c c73e d726 d23e ff8e bc3e
0.36353144 0.389746 0.41045257 0.36827847
